landing_ckpt/ckpt_00000100.pt (torch, 400631 bytes, 15 tensors)

actor.linear1.weight f4 [128, 120]
-0.037757725 -0.06311885 -0.0741996 -0.022525659 0.033933677 0.028759325 0.009592246 -0.031899374
0.03646572 0.0005245645 0.0302375 0.03679302 0.06370658 -0.08780428 -0.07291059 -0.0515876
-0.033624526 0.060366616 -0.0023112427 -0.07296656 0.016032672 0.054201957 -0.046139702 0.049655892
-0.07144384 -0.07011168 0.029231707 0.037657563 0.07119655 -0.024776625 0.06332669 0.07875709
0.040048078 -0.076748855 0.05870322 -0.037962053 -0.02178537 -0.037976775 0.06674079 0.049449038
0.06413842 0.011906311 -0.010938619 -0.03389029 0.039117653 0.017663844 0.022744475 0.0775499
-0.004234915 0.014642993 0.06240448 0.0375137 0.02858831 -0.007201102 0.08290325 -0.08728808
-0.08280454 -0.084801145 -0.02330727 0.04488309 0.039763317 0.06838135 -0.0053175422 0.047313105
-0.02285912 0.08980119 0.038759306 -0.073221244 0.024533067 -0.030635932 0.08588031 0.0011670598
0.04934065 -0.03118812 0.0161597 -0.071747705 0.062414806 0.059449546 0.016210742 -0.042378213
-0.019846752 0.089769855 -0.024268555 0.068994164 -0.061170243 0.0017672443 0.04722685 -0.067464165
0.09263713 -0.010056506 0.08097803 0.05634073 0.00416748 -0.0518063 -0.018865556 -0.0008277872
-0.08203585 -0.0014987147 -0.07860676 0.024377301 0.025586253 -0.0658128 0.037925046 -0.077139564
0.038938146 -0.011874761 -0.086734034 0.0019093675 0.061499216 -0.009970649 -0.07333136 -0.044171765
0.06357484 0.023182211 0.06576886 -0.05863696 0.053174034 0.025497943 0.07888268 0.028791046
0.07939098 0.04648193 -0.030915406 -0.0060149236 0.08721908 -0.062069844 0.066111274 -0.058743287
-0.06533048 -0.012215818 0.058558382 0.019348452 0.07625616 -0.08765462 -0.019865088 0.062715374
0.0025960575 -0.08443559 0.02638806 0.060212094 0.026413582 -0.02038855 -0.013891621 0.07684392
0.054124385 -0.018028764 0.041329857 0.06952513 -0.032987922 0.004103602 -0.06908545 0.09123107
-0.032885533 0.016565561 0.003717191 -0.06809734 -0.03137917 -0.07436315 -0.07606156 0.015932243
-0.046888757 0.025986629 0.08262566 -0.061563242 0.01904102 0.08696499 0.024517955 0.03936508
-0.09072323 -0.057393458 0.0041758227 -0.02592052 0.08726926 -0.06919507 0.041620355 -0.06956785
-0.078328766 -0.028598385 0.004800815 0.054792687 0.014198023 -0.06253193 0.056733396 0.0011144786
-0.020739935 -0.07623381 0.04252799 -0.027384669 -0.08535906 -0.011198243 -0.020634232 -0.047908507
-0.027129946 -0.017338043 -0.01764649 -0.07300151 0.0036793435 0.012499647 -0.057123773 0.034517873
0.052470475 -0.026111592 -0.04986614 0.071610026 0.08628143 0.014353593 0.027501721 -0.081128076
-0.011727913 0.03239303 0.036720533 -0.068563364 -0.08827301 -0.039877363 0.080975056 0.043544076
0.014506759 -0.08488412 0.017203577 0.083562374 -0.080855146 0.0008828128 -0.088020936 -0.024660513
-0.07873508 0.02151356 -0.06037121 0.0019345382 0.049692463 0.025768973 -0.061924227 -0.08891103
0.04376566 0.0056166416 0.00902709 0.037571598 -0.0672236 -0.07764407 -0.06950836 -0.039597336
-0.03911832 -0.023538174 0.01113171 0.019432195 0.025822043 -0.084007084 -0.08448627 0.033405058
-0.048906747 -0.037038475 0.030823143 -0.004778045 0.01625828 0.06885349 -0.03950145 0.0470405
00000000: d8a7 1abd 7544 81bd f6f5 97bd bb87 b8bc
00000010: 0afe 0a3d ad98 eb3c cc28 1d3c eba8 02bd
00000020: 145d 153d ed82 093a a2b4 f73c 47b4 163d
00000030: 9878 823d bbd2 b3bd 2652 95bd 854d 53bd
00000040: dfb9 09bd fc42 773d 3878 17bb 7e6f 95bd
00000050: f356 833c df02 5e3d fcfc 3cbd fa63 4b3d
00000060: 2651 92bd b696 8fbd 5577 ef3c d13e 1a3d
00000070: 7fcf 913d 59f8 cabc 6cb1 813d 664b a13d
00000080: 7409 243d 812e 9dbd ca72 703d 197e 1bbd
00000090: 3b77 b2bc 898d 1bbd 65af 883d 138b 4a3d
000000a0: 015b 833d b012 433c e537 33bc 8bd0 0abd
000000b0: d539 203d c4b3 903c 9f52 ba3c 7bd2 9e3d
000000c0: 0bc5 8abb 2ae9 6f3c d79b 7f3d f7a7 193d
000000d0: 0832 ea3c 39f7 ebbb 2ec9 a93d 18c4 b2bd
000000e0: 6d95 a9bd 39ac adbd e3ee bebc 55d7 373d
000000f0: dcde 223d 850b 8c3d c73e aebb 63cb 413d
00000100: 0d43 bbbc b0e9 b73d 14c2 1e3d 05f5 95bd
00000110: 92f9 c83c 35f8 fabc 04e2 af3d 07f8 983a
00000120: 6c19 4a3d 3a7e ffbc 5961 843c 76f0 92bd
00000130: aba6 7f3d 5e81 733d 64cc 843c c794 2dbd
00000140: a895 a2bc 42d9 b73d d9ce c6bc d04c 8d3d
00000150: a68d 7abd e1a2 e73a f170 413d a72a 8abd
00000160: 89b8 bd3d 0bc4 24bc cfd7 a53d 8ac5 663d
00000170: 5b8f 883b d832 54bd f08b 9abc dcff 58ba
00000180: 6902 a8bd 8570 c4ba 95fc a0bd e8b2 c73c
00000190: 439a d13c dcc8 86bd 4b57 1b3d 59fb 9dbd
000001a0: 9b7d 1f3d 5c8e 42bc 9da1 b1bd be43 fa3a
000001b0: 9ae6 7b3d ef5b 23bc c12e 96bd 74ed 34bd
000001c0: 8733 823d 9fe8 bd3c d3b1 863d 4f2d 70bd
000001d0: 04cd 593d 10e1 d03c 3e8d a13d 33db eb3c
000001e0: bd97 a23d d663 3e3d 4e42 fdbc d618 c5bb
000001f0: eb9f b23d f33c 7ebd 5965 873d cd9c 70bd
00000200: fdcb 85bd db24 48bc eada 6f3d a580 9e3c
00000210: 312c 9c3d 4484 b3bd 1cbc a2bc eb70 803d
00000220: 9e22 2a3b 91ec acbd c62b d83c f5a0 763d
00000230: 4c61 d83c e305 a7bc ae99 63bc 5860 9d3d
00000240: 88b1 5d3d 0fb1 93bc 7f49 293d 3163 8e3d
00000250: 581e 07bd 8277 863b ac7c 8dbd 5bd7 ba3d
00000260: fbb2 06bd 80b4 873c 1e9c 733b 9e76 8bbd
00000270: 7287 00bd b54b 98bd 2ac6 9bbd 5684 823c
00000280: 6d0e 40bd e9e1 d43c a437 a93d bd29 7cbd
00000290: eafb 9b3c b31a b23d e1d9 c83c 473d 213d
000002a0: 1acd b9bd 6715 6bbd 57d5 883b 4557 d4bc
000002b0: 3aba b23d 25b6 8dbd 1b7a 2a3d 9779 8ebd
000002c0: d56a a0bd 2947 eabc 2850 9d3b 4c6e 603d
000002d0: d39e 683c be10 80bd 4761 683d b213 923a
000002e0: cce6 a9bc 7920 9cbd d431 2e3d d055 e0bc
000002f0: bbd0 aebd d678 37bc 1f09 a9bc b63b 44bd
00000300: 9f3f debc 8308 8ebc 5f8f 90bc d181 95bd
00000310: 2421 713b 52cb 4c3c 9efa 69bd 9d62 0d3d
00000320: 48eb 563d fae7 d5bc 7040 4cbd 47a8 923d
00000330: 52b4 b03d 552b 6b3c 4a4b e13c 7a26 a6bd
00000340: 6f26 40bc 8eae 043d 4568 163d f36a 8cbd
00000350: 7bc8 b4bd 7256 23bd 40d6 a53d 465b 323d
00000360: c2ad 6d3c bad7 adbd 84ee 8c3c c022 ab3d
00000370: 6297 a5bd 906c 673a 5244 b4bd d804 cabc
00000380: dc3f a1bd 353d b03c cd47 77bd 5590 fd3a
00000390: 538a 4b3d 7419 d33c 42a4 7dbd fc16 b6bd
000003a0: 9f43 333d ce0b b83b 5ce6 133c ade4 193d
000003b0: 87ac 89bd db03 9fbd 665a 8ebd d130 22bd
000003c0: 883a 20bd 21d3 c0bc c761 363c 4430 9f3c
000003d0: c088 d33c e80b acbd 2307 adbd bed3 083d
000003e0: 7152 48bd a8b5 17bd d180 fc3c 2691 9cbb
000003f0: 1630 853c 0f03 8d3d 46cc 21bd 8aad 403d

actor.linear1.bias f4 [128]
0.04756503 0.090532355 -0.029379439 0.07706295 0.070277885 0.070001885 -0.04959577 0.05328936
-0.046191614 0.042941894 0.05439445 -0.008857797 -0.013006628 0.052662246 -0.016434439 0.017719068
-0.08049817 -0.08975372 0.07305706 0.035615556 0.070590355 0.050388098 0.018535761 -0.073835954
-0.051601168 0.0043697758 -0.07277099 0.031258408 -0.0038337226 0.0130452085 -0.011336892 -0.01019744
-0.02444092 0.076991834 -0.06467976 0.049687944 0.0020487057 0.026999827 0.07452568 -0.07254298
0.037564456 0.069459744 0.006308137 -0.03588381 -0.02569358 -0.0026434273 0.059895873 -0.027638162
-0.039337218 0.04937897 0.08311427 0.015031473 0.041619316 -0.08202501 0.06939433 -0.019910159
-0.08463041 -0.062941656 0.053595945 0.01649536 -0.076434955 -0.004539015 -0.08700167 -0.05549029
0.04268769 -0.0011807592 -0.014252703 0.050995816 -0.07850196 -0.04130919 -0.09000888 -0.022139462
-0.032248713 -0.03394682 -0.03454096 0.030936746 -0.052403044 -0.03879202 0.045708355 0.009237742
0.03718879 0.00070760906 -0.021440703 0.08955458 0.009237264 0.082031034 0.05791088 -0.082562804
0.064458854 -0.02443628 0.018215377 -0.04921833 -0.07846639 0.053421948 -0.014475195 -0.0020371068
0.04431976 0.049409326 -0.08824632 -0.039033752 0.08236859 0.084577575 -0.042978685 -0.022808485
-0.0775023 0.018607145 0.037926454 -0.06951172 -0.06307841 0.020646501 -0.012165396 0.03288363
-0.06473839 0.03251733 0.07660448 -0.04560769 -0.015566725 0.03396669 -0.045363568 0.015659427
-0.033153117 -0.06335754 0.06703155 -0.068971105 0.0059441677 -0.022559648 -0.07400918 -0.042557776
00000000: 8dd3 423d 0769 b93d 26ad f0bc 2ed3 9d3d
00000010: daed 8f3d 265d 8f3d ef24 4bbd f245 5a3d
00000020: 6b33 3dbd d7e3 2f3d b7cc 5e3d 4b20 11bc
00000030: c019 55bc 5eb4 573d 84a1 86bc 9427 913c
00000040: 39dc a4bd ccd0 b7bd f19e 953d 9ee1 113d
00000050: ad91 903d c063 4e3d 4fd8 973c 4e37 97bd
00000060: bf5b 53bd 5630 8f3b f508 95bd d108 003d
00000070: 313f 7bbb 92bb 553c 5fbe 39bc 2a13 27bc
00000080: 5338 c8bc e5ad 9d3d d276 84bd 9685 4b3d
00000090: 9443 063b be2e dd3c eba0 983d 6a91 94bd
000000a0: 30dd 193d e940 8e3d 7db4 ce3b e7fa 12bd
000000b0: 587b d2bc 5a3d 2dbb 6055 753d 6d69 e2bc
000000c0: 1020 21bd 9a41 4a3d d037 aa3d 9146 763c
000000d0: 0479 2a3d bafc a7bd 9d1e 8e3d a11a a3bc
000000e0: b552 adbd 8ee7 80bd 6c87 5b3d 4721 873c
000000f0: ee89 9cbd 04bc 94bb ee2d b2bd c949 63bd
00000100: 4ad9 2e3d b4c3 9aba 2b84 69bc fde0 503d
00000110: a3c5 a0bd d333 29bd 9356 b8bd d15d b5bc
00000120: 3a17 04bd d20b 0bbd d27a 0dbd 0f6f fd3c
00000130: 93a4 56bd 62e4 1ebd af38 3b3d e659 173c
00000140: 4653 183d d77e 393a 6aa4 afbc 6468 b73d
00000150: e557 173c e3ff a73d f533 6d3d b016 a9bd
00000160: 0103 843d 982e c8bc 6a38 953c 2999 49bd
00000170: fdb2 a0bd f9d0 5a3d 5e29 6dbc fb80 05bb
00000180: a388 353d 6f61 4a3d 7dba b4bd dbe1 1fbd
00000190: ddb0 a83d 0237 ad3d 6b0a 30bd dcd8 babc
000001a0: 87b9 9ebd 036e 983c c558 1b3d 295c 8ebd
000001b0: 412f 81bd da22 a93c 5e51 47bc fcb0 063d
000001c0: 9095 84bd e430 053d cfe2 9c3d 21cf 3abd
000001d0: 940b 7fbc a820 0b3d 26cf 39bd 3348 803c
000001e0: 90cb 07bd 99c1 81bd d647 893d b940 8dbd
000001f0: 4bc7 c23b 03cf b8bc 2092 97bd 1051 2ebd

actor.linear2.weight f4 [128, 128]
-0.052538645 0.035441224 0.02665555 0.057174597 0.0575937 -0.017453255 -0.041904166 -0.017980127
0.01157688 0.012661563 -0.04648036 -0.032846056 -0.062534966 -0.061000377 0.05397996 0.078767195
0.005277895 -0.029333344 -0.038185686 0.04728906 -0.04387477 -0.08843755 0.08126874 0.022504633
0.060911406 -0.030997567 0.08916687 -0.068152554 0.018966489 -0.02657402 0.08323801 0.017553786
0.07623724 0.06850111 -0.046452917 -0.033869464 -0.05836642 0.009801892 0.078955494 -0.00010901911
0.058258988 -0.052999206 -0.069595054 0.07288966 -0.0703415 0.0648616 0.06845055 -0.083199024
-0.033509314 0.008796405 0.08446896 -0.053402603 -0.0025279492 -0.04728662 0.07683825 0.019468077
0.01543502 -0.0009682062 -0.069571085 0.082700856 -0.07562433 -0.047661223 0.07641283 -0.025971886
-0.08352169 0.08152824 -0.06928332 0.071963176 0.0017608935 -0.0025090203 0.07105296 -0.08155223
0.00017181969 -0.026047202 0.0105330795 0.06838532 -0.026303275 -0.0056891516 -0.057115998 0.05245012
0.030681876 0.06210491 -0.08485586 -0.069149606 0.061588474 -0.05831324 0.04084971 -0.02616843
0.08644827 0.023789613 -0.055774923 -0.07432899 -0.048869237 0.041013777 -0.026882693 0.009981883
-0.086395755 -0.058247913 -0.045962423 -0.035534173 -0.06470955 0.010565272 -0.03151827 -0.063731626
0.07610888 0.044269312 0.085475475 -0.060231663 0.044947423 0.01903707 -0.05177898 0.028660288
-0.02671194 0.07717672 0.06624805 0.03081281 0.017302297 -0.055360854 0.058169805 0.007959808
-0.040517706 -0.078974955 0.08029867 0.0762675 0.01599216 -0.07484507 0.07033803 0.004443554
-0.06817653 0.056437377 -0.03573325 -0.01847384 -0.0049596475 -0.08181352 0.013673183 0.048266288
-0.012881581 0.08510278 -0.019779557 -0.07061002 0.025192041 0.029686078 -0.00929088 0.009241849
0.00417549 -0.06962509 -0.0187242 0.045368984 -0.067746714 0.017818497 -0.076620355 -0.032303352
0.031075792 -0.073905915 -0.03686906 0.08333352 0.06068408 -0.0234731 -0.020092491 -0.0829706
0.05612229 0.028746316 0.020590028 -0.08195688 0.0465976 0.019638622 0.038740505 0.0143374475
-0.06156712 -0.031980097 -0.046301454 0.04169172 -0.0066507556 -0.035799608 -0.0081571825 0.03390927
0.08419221 -0.06470022 -0.08263421 0.06371025 0.05557028 0.051538397 0.08387765 -0.05617052
-0.07744722 -0.01566057 0.026801975 -0.05016994 0.08117098 0.05883259 0.06461855 -0.013133282
-0.005014321 -0.026082115 0.045691315 0.0049414365 -0.07089087 0.058127515 0.07145581 -0.060043756
0.0863265 -0.039770186 -0.014001241 0.004373627 -0.055297118 0.021446746 0.033434365 -0.017524194
0.049158763 -0.08150963 0.07791007 0.08786108 -0.03485217 0.054406922 0.0066090547 0.069269024
0.016202653 -0.08984435 -0.04721107 0.030103285 0.07301232 0.06300849 0.0007964899 -0.011821855
-0.06382599 0.07692331 -0.008999423 0.058656476 -0.018268844 0.04757848 -0.01703065 0.034476135
-0.0143068 0.047919642 -0.018448265 -0.0057135383 0.01804269 0.008283092 0.07257743 0.064994685
-0.058184527 -0.05264941 -0.038566407 -0.0011837487 0.08854776 -0.047044642 0.032964505 0.02689013
0.027996626 -0.008829683 -0.07961358 -0.037137568 0.025901811 0.07103132 -0.003043451 -0.056231193
00000000: c332 57bd d12a 113d bd5c da3c e92f 6a3d
00000010: 5fe7 6b3d 21fa 8ebc b4a3 2bbd 0f4b 93bc
00000020: f4ac 3d3c 7272 4f3c 3162 3ebd 9689 06bd
00000030: 5512 80bd 88db 79bd 171a 5d3d b250 a13d
00000040: 31f2 ac3b 7b4c f0bc 9868 1cbd 2cb2 413d
00000050: 08b6 33bd bf1e b5bd 3a70 a63d a35b b83c
00000060: 3d7e 793d 9cee fdbc 1f9d b63d 9193 8bbd
00000070: 9c5f 9b3c c2b1 d9bc b178 aa3d f5cc 8f3c
00000080: 4522 9c3d 4f4a 8c3d 6a45 3ebd b5ba 0abd
00000090: a111 6fbd 1d98 203c 6bb3 a13d 30a1 e4b8
000000a0: faa0 6e3d b215 59bd da87 8ebd 2d47 953d
000000b0: 340f 90bd 29d6 843d cd2f 8c3d 4064 aabd
000000c0: 1041 09bd cc1e 103c 10fe ac3d b0bc 5abd
000000d0: f3ab 25bb 9daf 41bd 5f5d 9d3d 847b 9f3c
000000e0: 2be3 7c3c 38cf 7dba 497b 8ebd 115f a93d
000000f0: eee0 9abd 6a38 43bd 547e 9c3d fec2 d4bc
00000100: 6b0d abbd 47f8 a63d 6ae4 8dbd 6e61 933d
00000110: c8cd e63a 606e 24bb 3784 913d db04 a7bd
00000120: 7f2a 3439 f160 d5bc f092 2c3c 9a0d 8c3d
00000130: f779 d7bc 106c babb 77f2 69bd f0d5 563d
00000140: 8f58 fb3c b861 7e3d e9c8 adbd 4f9e 8dbd
00000150: 3244 7c3d ddd9 6ebd 0752 273d 2d5f d6bc
00000160: ca0b b13d 6fe2 c23c 3f74 64bd cc39 98bd
00000170: 1c2b 48bd 10fe 273d 1839 dcbc 0d8b 233c
00000180: 42f0 b0bd 5d95 6ebd 1843 3cbd 488c 11bd
00000190: 7186 84bd f619 2d3c 4d19 01bd ba85 82bd
000001a0: f9de 9b3d bd53 353d c40d af3d 7ab5 76bd
000001b0: ca1a 383d a1f3 9b3c 3216 54bd fbc8 ea3c
000001c0: 00d3 dabc d40e 9e3d 0fad 873d 256b fc3c
000001d0: 8cbd 8d3c 10c2 62bd 7643 6e3d db69 023c
000001e0: e5f5 25bd 9fbd a1bd a173 a43d 2332 9c3d
000001f0: fe01 833c 5f48 99bd 630d 903d 3c9b 913b
00000200: 23a0 8bbd e12a 673d 075d 12bd 7356 97bc
00000210: 8a84 a2bb d98d a7bd 7c05 603c dfb2 453d
00000220: 440d 53bc 5e4a ae3d bd08 a2bc fc9b 90bd
00000230: 8a5f ce3c 3830 f33c c638 18bc 206b 173c
00000240: 8cd2 883b 9997 8ebd 7e63 99bc d4d4 393d
00000250: cabe 8abd 19f8 913c 22eb 9cbd 8550 04bd
00000260: a992 fe3c fc5b 97bd 0304 17bd c4aa aa3d
00000270: df8f 783d a94a c0bc 0299 a4bc 7dec a9bd
00000280: 7de0 653d 657d eb3c 6bac a83c 02d9 a7bd
00000290: 20dd 3e3d 2de1 a03c 5dae 1e3d 9de7 6a3c
000002a0: ce2d 7cbd 90fd 02bd 98a6 3dbd f0c4 2a3d
000002b0: 95ee d9bb 9ca2 12bd b4a5 05bc 72e4 0a3d
000002c0: f76c ac3d 8d81 84bd 203c a9bd 857a 823d
000002d0: a99d 633d ed19 533d 0cc8 ab3d 0f13 66bd
000002e0: a69c 9ebd 984a 80bc d18f db3c ff7e 4dbd
000002f0: f93c a63d 71fa 703d bb56 843d fa2c 57bc
00000300: 2c4f a4bb 29aa d5bc d126 3b3d c6eb a13b
00000310: 3c2f 91bd 1e17 6e3d 6c57 923d 71f0 75bd
00000320: f3cb b03d 10e6 22bd 7665 65bc a450 8f3b
00000330: 3b7f 62bd 16b1 af3c 79f2 083d e68e 8fbc
00000340: b35a 493d 85ee a6bd 518f 9f3d 83f0 b33d
00000350: 26c1 0ebd cbd9 5e3d c590 d83b ebdc 8d3d
00000360: 6dbb 843c 5100 b8bd 6560 41bd 2a9b f63c
00000370: 7c87 953d 980a 813d 88cb 503a 74b0 41bc
00000380: 33b7 82bd f889 9d3d 5172 13bc c641 703d
00000390: 8ba8 95bc a7e1 423d dd83 8bbc d936 0d3d
000003a0: 1267 6abc 6347 443d d120 97bc a238 bbbb
000003b0: 43ce 933c ceb5 073c 7aa3 943d ef1b 853d
000003c0: e652 6ebd e8a6 57bd cff7 1dbd 0428 9bba
000003d0: 8758 b53d e2b1 40bd ca05 073d b148 dc3c
000003e0: 2e59 e53c 60aa 10bc 720c a3bd 901d 18bd
000003f0: 0930 d43c de78 913d a374 47bb ae52 66bd

actor.linear2.bias f4 [128]
-0.0814355 0.08148277 0.027378283 -0.056080703 -0.04758466 0.0049101277 -0.0738504 0.07406943
0.04888198 -0.07670327 -0.048383553 0.056221142 0.008553529 -0.04892318 0.020010969 0.010912466
0.015534793 -0.0708353 -0.014990583 -0.07573489 -0.008475589 -0.04802829 -0.079618394 0.027783807
-0.07262908 0.06821352 0.0072923186 0.08256344 0.005905751 0.085914984 0.033966497 -0.045013286
-0.026793655 -0.052116726 -0.061495624 -0.031212887 0.05095677 0.04997848 -0.084350444 -0.08407237
0.036557786 -0.0753078 -0.07634397 0.035127938 -0.08176791 -0.085082784 -0.08103231 -0.060932167
0.0046658823 0.045547325 -0.028217787 -0.005409647 0.070326254 -0.022667827 0.039449923 0.011728943
-0.019172342 -0.008223936 0.07070862 -0.060786437 -0.031914067 -0.07223824 0.012765546 0.018769976
-0.009982538 0.04849746 -0.008422422 0.03743682 -0.02976621 -0.08810972 -0.08421648 0.08052265
0.019128885 0.052990086 -0.051561218 0.03816857 0.042209793 -0.04129521 -0.03156745 -0.052278474
0.08620131 0.07607592 -0.07441099 -0.06623028 0.0077459016 0.033949293 0.07479385 -0.0659041
-0.005049385 -0.07707609 0.049700245 -0.03991198 -0.058874667 -0.077614814 0.013269958 0.065825075
-0.085855566 -0.08222614 -0.0618303 0.030522503 0.023725955 -0.009994273 0.0055896863 0.04191198
0.019753696 0.028561344 -0.05594919 -0.05866117 0.070727296 -0.06424416 0.038728476 -0.009035734
-0.00081306277 0.0009014241 0.052149277 -0.049500275 0.04205644 0.067406625 0.049368437 -0.053155977
0.025271138 0.029127514 0.057007037 -0.002525279 0.057512835 -0.08911494 -0.0004950393 -0.026143657
00000000: a8c7 a6bd 70e0 a63d 6c48 e03c e1b4 65bd
00000010: 22e8 42bd 23e5 a03b e13e 97bd b7b1 973d
00000020: 7938 483d 9b16 9dbd d52d 46bd 2448 663d
00000030: 1a24 0c3c ac63 48bd 0bee a33c 33ca 323c
00000040: a585 7e3c 1912 91bd 109b 75bc e51a 9bbd
00000050: 32dd 0abc 50b9 44bd f80e a3bd de9a e33c
00000060: 8ebe 94bd 88b3 8b3d 67f4 ee3b 0517 a93d
00000070: 0885 c13b 32f4 af3d 7420 0b3d da5f 38bd
00000080: 5e7e dbbc 5978 55bd d6e2 7bbd 2bb2 ffbc
00000090: 0cb8 503d 3cb6 4c3d edbf acbd 222e acbd
000000a0: 9ebd 153d fa3a 9abd 3a5a 9cbd 50e2 0f3d
000000b0: ef75 a7bd e23f aebd 45f4 a5bd 0294 79bd
000000c0: 42e4 983b d58f 3a3d fd28 e7bc 6843 b1bb
000000d0: 3607 903d e1b1 b9bc 3e96 213d c12a 403c
000000e0: 510f 9dbc b0bd 06bc aecf 903d 33fb 78bd
000000f0: 53b8 02bd a4f1 93bd 9526 513c 7ec3 993c
00000100: cd8d 23bc 46a5 463d 33fe 09bc 5a57 193d
00000110: 44d8 f3bc de72 b4bd b179 acbd 0fe9 a43d
00000120: 2eb4 9c3c 220c 593d db31 53bd a556 1c3d
00000130: 2de4 2c3d 2b25 29bd df4c 01bd f421 56bd
00000140: 508a b03d b1cd 9b3d ca64 98bd bea3 87bd
00000150: 55d1 fd3b 6a0e 0b3d 852d 993d bbf8 86bd
00000160: 5075 a5bb 12da 9dbd 7c92 4b3d bf7a 23bd
00000170: 9026 71bd 84f4 9ebd 3d6a 593c 4ccf 863d
00000180: 0bd5 afbd 2e66 a8bd c541 7dbd 540a fa3c
00000190: ef5c c23c 05bf 23bc b029 b73b e5ab 2b3d
000001a0: 81d2 a13c 7bf9 e93c fa2a 65bd b246 70bd
000001b0: 79d9 903d 7192 83bd c0a1 1e3d 9e0a 14bc
000001c0: b823 55ba 8c4d 6c3a 7b9a 553d cdc0 4abd
000001d0: 6043 2c3d 7c0c 8a3d 8f36 4a3d 15ba 59bd
000001e0: 6b05 cf3c d39c ee3c 3680 693d 277f 25bb
000001f0: 9492 6b3d e581 b6bd 86c5 01ba 392b d6bc

actor.linear3.weight f4 [128, 128]
0.01821931 -0.034978673 -0.011170963 -0.029041115 0.015232171 0.06429433 0.03155781 -0.044530742
0.061809037 -0.012194055 0.01310701 -0.0749883 0.045392003 0.04700885 -0.035889562 -0.014302757
0.07181781 0.007473157 -0.058280118 -0.04518475 -0.0069610747 -0.023023741 -0.06735642 0.017421745
-0.009510213 -0.0035811318 -0.06158584 -0.024807345 0.08712715 0.06477076 0.08333093 -0.00784909
-0.022916306 0.041020107 0.035394892 -0.005138381 0.04079305 -0.045009628 -0.042314276 0.0019645118
0.06747734 -0.012179993 -0.07192807 0.083301574 -0.006643643 -0.077252924 0.0662549 -0.06247508
0.07398759 -0.050607957 0.009514678 0.031114511 0.020865902 -0.07293951 0.010028929 -0.044651844
-0.08347311 0.07901663 0.007996888 -0.05068697 0.030445445 -0.01720058 -0.053422753 -0.036205143
-0.00071719097 0.015612587 0.06509531 0.03513086 -0.040104624 -0.05069153 -0.030416865 0.07112383
0.06530641 -0.019856365 0.032766514 0.081748545 -0.004274308 0.035300992 -0.082729824 0.03802654
-0.0027868962 -0.079766154 -0.088698484 0.064206704 -0.063661054 -0.0119075375 -0.08943095 0.034660038
0.053389568 0.017676687 -0.017121896 0.019278267 -0.069675 0.04786628 0.061798226 0.00061153976
-0.08327432 0.03441386 -0.079510406 -0.06218756 -0.0665083 -0.064752884 -0.07815594 -0.0023507946
0.08410664 0.0112984 -0.08543235 -0.0031822869 -0.020014482 -0.052424736 -0.038555026 0.03770357
-0.03078506 0.045352843 0.019228369 0.010687765 0.027164152 -0.010603359 0.08091449 -0.061869554
-0.06992874 -0.030645764 0.0748268 0.016393261 0.040166624 -0.020210013 -0.06023453 -0.06299659
0.08513472 -0.03703581 0.043334626 0.018104447 0.050273772 -0.032919597 -0.012589627 -0.07949209
-0.08400328 -0.080059014 0.049877875 0.07886133 0.0065941424 0.07459755 -0.06705702 0.06543337
0.01758429 0.08305682 -0.04239101 -0.044524584 0.02008292 -0.08304484 0.08150618 -0.0047599855
0.072376296 0.0044791847 -0.086268365 -0.03221667 -0.033870894 0.0341578 -0.06554682 -0.0007443774
-0.08422339 0.019624405 0.0299627 -0.001313666 -0.082049385 -0.019484395 0.048736867 -0.0048494497
-0.012960414 0.03534047 0.033083178 0.060028672 -0.06771243 0.054587085 -0.07381726 0.042706817
0.018947532 -0.077875726 0.012882694 0.061031714 -0.05623809 -0.028341847 -0.04674816 0.0606061
-0.000850428 0.0022053872 0.0569762 -0.0066176183 -0.04496925 0.05172819 0.02948705 -0.016871978
0.033657048 -0.0051630903 -0.028341303 0.0014414946 -0.046435412 -0.073683515 -0.02698363 0.075734206
-0.055636957 -0.07870193 -0.07623396 0.046953022 -0.08005959 -0.010462227 0.049681272 0.041769043
-0.024501342 0.069060996 0.0034740123 0.06570004 -0.010386065 0.07817942 -0.04741483 -0.07175365
0.07678758 0.08466926 0.08307376 -0.08304863 -0.03598124 -0.038936947 0.036213893 -0.03896627
-0.0007281621 0.019475365 -0.0040101856 -0.085431136 0.028797248 0.030788116 -0.07474691 -0.032453366
0.066901036 -0.018864026 -0.036631238 0.020706503 0.086251035 0.06543574 0.043861013 0.0016042191
0.07181843 0.08094225 -0.077077195 0.08550427 0.029043512 0.021597588 0.084108196 -0.043282546
-0.06368002 -0.079168215 -0.043410003 -0.07247977 -0.00632569 0.08149924 0.03148865 0.039702002
00000000: aa40 953c cc45 0fbd 6a06 37bc a2e7 edbc
00000010: 5b90 793c bfac 833d c342 013d de65 36bd
00000020: 792b 7d3d 93c9 47bc c9be 563c 7793 99bd
00000030: f7ec 393d 5a8c 403d ef00 13bd 1c56 6abc
00000040: 3715 933d 62e1 f43b 22b7 6ebd a513 39bd
00000050: ba19 e4bb 499c bcbc 2af2 89bd 0cb8 8e3c
00000060: b9d0 1bbc 6cb1 6abb 6f41 7cbd c638 cbbc
00000070: b86f b23d 88a6 843d 68a9 aa3d 7899 00bc
00000080: faba bbbc b304 283d 3cfa 103d dd5f a8bb
00000090: 9d16 273d 045c 38bd bc51 2dbd 0abf 003b
000000a0: 8f31 8a3d 988e 47bc 064f 93bd 049a aa3d
000000b0: ebb2 d9bb c836 9ebd a6b0 873d dfe5 7fbd
000000c0: ce86 973d 4a4a 4fbd 74e3 1b3c dce3 fe3c
000000d0: f8ee aa3c 4f61 95bd 6150 243c dae4 36bd
000000e0: f3f3 aabd 79d3 a13d 6105 033c 249d 4fbd
000000f0: ba68 f93c 3be8 8cbc d1d1 5abd d84b 14bd
00000100: df01 3cba f0cb 7f3c b150 853d 60e5 0f3d
00000110: bf44 24bd eca1 4fbd ca2c f9bc 5fa9 913d
00000120: 5ebf 853d d1a9 a2bc 2e36 063d c86b a73d
00000130: 7f0f 8cbb c697 103d 416e a9bd b8c1 1b3d
00000140: 5ca4 36bb 705c a3bd 8da7 b5bd ce7e 833d
00000150: ba60 82bd d517 43bc 9327 b7bd aff7 0d3d
00000160: 05af 5a3d b3ce 903c 3843 8cbc 75ed 9d3c
00000170: c4b1 8ebd 6f0f 443d 2320 7d3d bd4f 203a
00000180: ba8b aabd 8cf5 0c3d 5ad6 a2bd 62b8 7ebd
00000190: 8135 88bd 299d 84bd 3910 a0bd ca0f 1abb
000001a0: 1a40 ac3d ed1c 393c 28f7 aebd ea8d 50bb
000001b0: 69f5 a3bc 52bb 56bd e0eb 1dbd 0f6f 1a3d
000001c0: f330 fcbc e7c3 393d d084 9d3c bc1b 2f3c
000001d0: 5b87 de3c b6b9 2dbc 7fb6 a53d ee6a 7dbd
000001e0: cd36 8fbd d30c fbbc cb3e 993d 294b 863c
000001f0: c285 243d 788f a5bc 7cb8 76bd 5b04 81bd
00000200: 1d5b ae3d ddb2 17bd a67f 313d c74f 943c
00000210: dfeb 4d3d b3d6 06bd b944 4ebc c0cc a2bd
00000220: e909 acbd fbf5 a3bd be4c 4c3d 0d82 a13d
00000230: ad13 d83b 9ac6 983d 3155 89bd ee01 863d
00000240: ee0c 903c b219 aa3d 32a2 2dbd 695f 36bd
00000250: f084 a43c 6a13 aabd b6ec a63d a7f9 9bbb
00000260: 063a 943d 20c6 923b 78ad b0bd a1f5 03bd
00000270: 35bc 0abd 0de9 0b3d 693d 86bd 5222 43ba
00000280: 507d acbd 5cc3 a03c 5674 f53c 512f acba
00000290: 8209 a8bd bd9d 9fbc 4fa0 473d 22e8 9ebb
000002a0: eb57 54bc 2bc1 103d 3a82 073d a0e0 753d
000002b0: d1ac 8abd b596 5f3d 812d 97bd 58ed 2e3d
000002c0: db37 9b3c 4f7d 9fbd ef11 533c 64fc 793d
000002d0: e959 66bd 292d e8bc 007b 3fbd 1a3e 783d
000002e0: 42ef 5eba 4288 103b e05f 693d 9bd8 d8bb
000002f0: ad31 38bd f0e0 533d d38e f13c 1a37 8abc
00000300: f9db 093d 242f a9bb 052c e8bc 88f0 bc3a
00000310: 0f33 3ebd 62e7 96bd c60c ddbc 891a 9b3d
00000320: 94e3 63bd 7a2e a1bd 8d20 9cbd d051 403d
00000330: 48f6 a3bd c369 2bbc 977e 4b3d 0416 2b3d
00000340: 0ab7 c8bc da6f 8d3d 41ac 633b be8d 863d
00000350: 502a 2abc 881c a03d 0e36 42bd 94f3 92bd
00000360: cf42 9d3d 1467 ad3d 9322 aa3d 6615 aabd
00000370: 1161 13bd 597c 1fbd 0555 143d 189b 1fbd
00000380: 22e2 3eba cd8a 9f3c e067 83bb 85f6 aebd
00000390: 35e8 eb3c 5c37 fc3c e814 99bd d2ed 04bd
000003a0: 6903 893d bb88 9abc a30a 16bd afa0 a93c
000003b0: 62a4 b03d 2c03 863d 9ba7 333d a944 d23a
000003c0: 8b15 933d 0dc5 a53d a6da 9dbd dd1c af3d
000003d0: a9ec ed3c 6ded b03c eb40 ac3d 0a49 31bd
000003e0: ac6a 82bd f222 a2bd b0ce 31bd 4670 94bd
000003f0: bc47 cfbb 13e9 a63d 3efa 003d 919e 223d

actor.linear3.bias f4 [128]
-0.077562496 0.0812497 0.05977079 -0.01388426 0.0037312726 0.042883776 0.068157196 0.06477661
-0.064957656 0.0058126254 0.029900687 -0.05884009 0.07697053 -0.0009580755 -0.030543137 0.031058948
-0.04134867 -0.0018443147 -0.016100373 -0.025394073 -0.017005349 -0.0703237 0.020503819 0.010339072
0.039888464 0.08053435 -0.008617509 0.05184796 -0.054471277 -0.010734914 0.077712536 0.076124325
-0.010808384 -0.06782607 -0.020771379 -0.061186865 -0.06978856 -0.022457492 0.03383518 -0.0738638
0.07021157 0.051828537 -0.026784977 0.009533513 -0.05170433 0.054011464 -0.05302921 0.041382845
0.070838094 0.06480904 0.0034888585 0.08843273 0.087320596 -0.027939945 -0.08627245 -0.021898592
-0.033776786 0.014302128 -0.043629967 0.03276629 0.053572003 -0.08136517 -0.0462504 -0.052067976
-0.052499264 -0.02960468 0.0024141688 -0.051707022 0.0002547611 0.0542288 0.057826683 -0.019581115
0.017994203 -0.050699525 0.06055231 -0.08107768 -0.04739374 -0.06991245 -0.034702253 0.08953406
0.0076816296 -0.059723444 0.016752267 -0.023442015 -0.08100178 0.08425807 -0.034646254 -0.043038875
-0.036686704 0.012823324 -0.011924849 0.0069243694 -0.038138755 0.059719354 0.024627184 -0.020911682
-0.08713313 0.050061766 -0.059886098 0.01562546 -0.063271806 0.054718774 -0.07642119 -0.08632621
0.07251691 -0.064933024 -0.05223424 0.035562675 0.07667232 -0.028554454 0.035143778 0.013692875
0.041139293 0.006978596 0.01770528 -0.024143962 0.083968095 -0.0458892 -0.061733685 -0.016708432
0.06040951 0.06563148 -0.05990014 0.03959405 -0.03867556 -0.04994906 -0.04553014 -0.08238417
00000000: 16d9 9ebd 3e66 a63d 37d2 743d cf7a 63bc
00000010: 5e88 743b e6a6 2f3d 0096 8b3d 99a9 843d
00000020: 8508 85bd d677 be3b 49f2 f43c 4e02 71bd
00000030: baa2 9d3d 5c27 7bba 9a35 fabc 566f fe3c
00000040: 395d 29bd efbc f1ba eee4 83bc 3b07 d0bc
00000050: cd4e 8bbc df05 90bd a0f7 a73c 3665 293c
00000060: 1662 233d 31ef a43d 7430 0dbc 875e 543d
00000070: 461d 5fbd 7ee1 2fbc c027 9f3d 12e7 9b3d
00000080: a615 31bc 65e8 8abd bd28 aabc 149f 7abd
00000090: 4eed 8ebd c6f8 b7bc c296 0a3d e745 97bd
000000a0: 15cb 8f3d 294a 543d 2b6c dbbc 7432 1c3c
000000b0: ebc7 53bd 203b 5d3d 2835 59bd 0f81 293d
000000c0: 9013 913d 9aba 843d 55a5 643b 381c b53d
000000d0: 24d5 b23d 50e2 e4bc 9caf b0bd ad64 b3bc
000000e0: 8759 0abd 7953 6a3c 56b5 32bd f235 063d
000000f0: 516e 5b3d c8a2 a6bd 0f71 3dbd 3b45 55bd
00000100: 7809 57bd 8485 f2bc 0837 1e3b beca 53bd
00000110: 7591 8539 051f 5e3d acdb 6c3d 9368 a0bc
00000120: 9468 933c 4eaa 4fbd b305 783d 0e0c a6bd
00000130: f01f 42bd 422e 8fbd f323 0ebd a25d b73d
00000140: 2eb6 fb3b 92a0 74bd 0d3c 893c 7809 c0bc
00000150: 43e4 a5bd 7f8f ac3d 3be9 0dbd 8849 30bd
00000160: cc44 16bd eb18 523c 7160 43bc d2e5 e23b
00000170: 6237 1cbd 489c 743d f3be c93c fa4e abbc
00000180: db72 b2bd 910d 4d3d 204b 75bd f700 803c
00000190: a694 81bd cb20 603d b682 9cbd cccb b0bd
000001a0: bf83 943d 9bfb 84bd 92f3 55bd 2baa 113d
000001b0: 6106 9d3d 08eb e9bc ecf2 0f3d 1558 603c
000001c0: ad81 283d b5ac e43b aa0a 913c 8fc9 c5bc
000001d0: 77f7 ab3d 50f6 3bbd 76dc 7cbd 1fe0 88bc
000001e0: f66f 773d cc69 863d d959 75bd 5f2d 223d
000001f0: 446a 1ebd 6397 4cbd d07d 3abd 08b9 a8bd

actor.linear4.weight f4 [9, 128]
0.04641618 0.08169043 -0.047814608 0.026241316 -0.0709428 0.006033704 -0.07299935 0.02659914
0.08696098 -0.046936423 0.073513255 -0.062802866 -0.02114276 -0.04126813 0.058551706 0.000136644
0.045657337 0.00043174086 0.04372369 0.046058528 -0.03912457 -0.0705737 -0.05616943 -0.02471799
-0.08745589 -0.0117520075 0.026200946 0.029735463 0.007522588 -0.0198381 -0.046665657 0.07882897
-0.051302765 0.061776128 -0.033353537 -0.06076185 -0.06418764 0.04225725 -0.08813667 0.0049254
0.07568827 0.0635458 -0.041145314 0.03275212 -0.07952696 0.0064738593 -0.054864775 -0.024172377
0.01714467 -0.074262865 0.0024917654 0.001475177 0.017951075 0.017643737 -0.002989459 -0.003568333
0.04742217 0.036130276 -0.0120836925 0.08744559 0.080746144 -0.031860847 -0.07728486 -0.05992304
-0.069702744 0.0019412144 -0.031486794 0.08392844 -0.004311886 -0.02079735 -0.08212122 0.06607943
-0.061813656 -0.006008386 -0.009055832 -0.0049945395 -0.06417308 0.017311694 0.033940453 0.05053754
-0.05150827 -0.07081844 0.00044417224 -0.012256778 0.00040693543 -0.030492427 0.065035656 -0.05574957
0.079704404 0.017029952 0.036705304 -0.04474968 0.02143925 0.031116426 0.050571885 -0.015982527
0.054637846 0.024104642 -0.07586731 0.062380068 -0.02871768 -0.03048717 -0.01387604 0.058925357
-0.01152887 -0.058664486 0.084439166 -0.04248727 0.0837183 0.07263807 0.029036656 -0.027138213
0.058772594 -0.013993411 0.04827669 0.02728106 0.032594707 0.07611101 -0.05153043 0.051797006
-0.0024076276 0.085056834 -0.029595433 0.07526127 -0.018596372 -0.05440447 -0.019074261 -0.050177574
0.028188892 -0.03224004 0.06405734 0.014181044 0.031484827 -0.041793194 -0.041045915 0.022131545
-0.06259335 0.07115845 0.03055994 0.043951735 -0.05004043 0.08269737 0.026344111 -0.026293494
0.088601604 -0.027887668 0.076791145 -0.03360528 0.055620566 0.03597478 -0.08196122 -0.08172858
0.007958772 -0.046786606 0.08898791 -0.07901747 -0.007445013 -0.006562706 -0.07540882 0.009957941
0.07657119 -0.012684575 -0.06653638 -0.067453034 -0.019602552 0.011086039 0.022413252 0.018884959
-0.080104984 -0.08261366 0.072672606 -0.005532032 0.045799006 0.03570466 -0.043663375 0.0610708
0.052184414 -0.08607429 -0.020396257 -0.06345078 -0.07360155 -0.0723792 0.052171446 -0.07616026
-0.06962525 0.025237521 -0.019373901 -0.06793783 0.05563317 0.015171153 5.138974e-05 0.08203115
0.035256684 -0.027266938 -0.04617624 0.050308652 -0.01966879 0.024211487 -0.058249634 0.062576674
0.061185434 0.03325946 0.07143964 0.01419108 -0.021579506 -0.017802963 0.05899232 0.019123422
-0.045707576 0.059211403 0.068605736 -0.08256084 0.06399063 0.015910525 0.0034245683 -0.012135505
-0.023374872 -0.07953775 -0.074355885 0.060525056 0.00034377005 -0.008713115 0.080337785 0.074394904
-0.0677525 -0.07969773 0.04750463 -0.011951353 0.068544455 -0.03881754 0.085833535 0.07181967
-0.029770913 0.080363005 0.07153703 -0.024343316 0.07716664 -0.010369439 -0.064134575 0.06717912
0.06522039 -0.013472471 0.08307844 0.066366725 0.018755054 0.0013987307 -0.084615424 0.08238607
0.07170177 -0.055037644 -0.021747747 0.01458239 0.0707624 -0.02139911 -0.033763323 -0.04442436
00000000: e41e 3e3d 504d a73d 40d9 43bd 07f8 d63c
00000010: 754a 91bd 61b6 c53b af80 95bd 71e6 d93c
00000020: 9918 b23d 6840 40bd 1e8e 963d ca9e 80bd
00000030: 9533 adbc c508 29bd ead3 6f3d 1848 0f39
00000040: 3003 3b3d 475b e239 9d17 333d dea7 3c3d
00000050: 1641 20bd f288 90bd eb11 66bd 627d cabc
00000060: 131c b3bd 7e8b 40bc 5ea3 d63c c997 f33c
00000070: 0b80 f63b 8383 a2bc 7d24 3fbd 1571 a13d
00000080: d922 52bd f708 7d3d b89d 08bd 6be1 78bd
00000090: cf74 83bd f015 2d3d 0081 b4bd 4065 a13b
000000a0: 7402 9b3d 4d24 823d fd87 28bd 1627 063d
000000b0: 08df a2bd ab22 d43b e3b9 60bd 2605 c6bc
000000c0: fb72 8c3c 2117 98bd e34c 233b ba5a c13a
000000d0: 220e 933c 9989 903c cdea 43bb b2da 69bb
000000e0: c03d 423d 57fd 133d aefa 45bc ac16 b33d
000000f0: 3c5e a53d 8580 02bd 8647 9ebd dd71 75bd
00000100: 50c0 8ebd 5970 fe3a 4cf8 00bd ade2 ab3d
00000110: b94a 8dbb 345f aabc 2c2f a8bd a754 873d
00000120: 5130 7dbd ffe1 c4bb ea5e 14bc 3ca9 a3bb
00000130: 2d6d 83bd 41d1 8d3c 2505 0b3d 7400 4f3d
00000140: 56fa 52bd 4209 91bd cadf e839 a7d0 48bc
00000150: f359 d539 41cb f9bc 6a31 853d a959 64bd
00000160: 103c a33d 6682 8b3c 4d58 163d 714b 37bd
00000170: 5ea1 af3c e0e7 fe3c 7724 4f3d caed 82bc
00000180: efcb 5f3d 1977 c53c 5260 9bbd 3e82 7f3d
00000190: 5741 ebbc 3bc0 f9bc 5458 63bc b75b 713d
000001a0: 96e3 3cbc 2c4a 70bd 71ee ac3d 2207 2ebd
000001b0: 8074 ab3d 45c3 943d 48de ed3c f550 debc
000001c0: 88bb 703d 9f44 65bc c7bd 453d 887c df3c
000001d0: 0782 053d 17e0 9b3d 9211 53bd 1929 543d
000001e0: 4ac9 1dbb 4732 ae3d 1f72 f2bc 9522 9a3d
000001f0: 6b57 98bc 39d7 5ebd a041 9cbc 0087 4dbd
00000200: 64ec e63c 220e 04bd 7f30 833d 9c57 683c
00000210: 3cf6 003d 572f 2bbd c31f 28bd 374d b53c
00000220: f130 80bd 85bb 913d d758 fa3c bc06 343d
00000230: 32f7 4cbd 3d5d a93d 9bcf d73c 7465 d7bc
00000240: c274 b53d ae74 e4bc ad44 9d3d b1a5 09bd
00000250: 64d2 633d 4a5a 133d 49db a7bd 5061 a7bd
00000260: 8265 023c 50a3 3fbd 4b3f b63d e9d3 a1bd
00000270: 4cf5 f3bb f80b d7bb f06f 9abd a226 233c
00000280: 5bd1 9c3d f7d2 4fbc 3a44 88bd d124 8abd
00000290: 8895 a0bc 38a2 353c ff9b b73c a1b4 9a3c
000002a0: 150e a4bd 5a31 a9bd 60d5 943d 0c46 b5bb
000002b0: bd97 3b3d 0d3f 123d 5ed8 32bd 6025 7a3d
000002c0: 53bf 553d b847 b0bd 0d16 a7bc 7cf2 81bd
000002d0: 69bc 96bd 8c3b 94bd bab1 553d e9f9 9bbd
000002e0: af97 8ebd ebbe ce3c 04b6 9ebc fd22 8bbd
000002f0: 9bdf 633d 6d90 783c 508b 5738 f3ff a73d
00000300: 5069 103d ea5e dfbc 4c23 3dbd 7210 4e3d
00000310: 7120 a1bc 2b57 c63c 2b97 6ebd 3328 803d
00000320: 949d 7a3d 123b 083d f24e 923d b481 683c
00000330: 81c7 b0bc 85d7 91bc eea1 713d b9a8 9c3c
00000340: de37 3bbd a887 723d 2a81 8c3d a815 a9bd
00000350: 850d 833d ca56 823c b96e 603b ffd3 46bc
00000360: a97c bfbc b0e4 a2bd e647 98bd 1fe9 773d
00000370: 093c b439 74c1 0ebc 2388 a43d 5b5c 983d
00000380: d3c1 8abd 9038 a3bd 3794 423d 9ccf 43bc
00000390: 0961 8c3d 24ff 1ebd 7ec9 af3d 3116 933d
000003a0: 21e2 f3bc 5c95 a43d 0282 923d a26b c7bc
000003b0: 8b09 9e3d 94e4 29bc fd58 83bd 3595 893d
000003c0: 4592 853d a4bb 5cbc 0725 aa3d 47eb 873d
000003d0: 33a4 993c 9d55 b73a da4a adbd 07ba a83d
000003e0: 61d8 923d 276f 61bd 5528 b2bc faea 6e3c
000003f0: e1eb 903d 304d afbc 694b 0abd 51f6 35bd

actor.linear4.bias f4 [9]
-0.06570491 -0.036166243 0.046909325 0.015021029 -0.04745303 -0.040953856 0.0719371 0.031549376
-0.015724285
00000000: 4c90 86bd 0e23 14bd fe23 403d c31a 763c
00000010: 1c5e 42bd 3bbf 27bd c253 933d eb39 013d
00000020: 37d0 80bc

critic.linear1.weight f4 [128, 120]
-0.007064083 0.01468263 -0.056699857 -0.079953685 0.071809135 0.037874088 0.022138095 -0.07609664
-0.036930118 0.0036810245 -0.07301779 -0.06305992 0.02404055 0.046133704 -0.06239393 -0.0306052
-0.08020365 -0.0034715727 -0.06338701 0.0052847723 -0.06492503 -0.015586798 0.0749051 -0.06362263
-0.07189722 -0.027528295 0.05088311 0.086513266 -0.089306735 0.04439503 -0.01844445 -0.07376651
0.017905861 -0.058358412 0.06535296 -0.071906 0.025384506 0.05501653 -0.022925088 0.06992332
-0.024824461 0.039400373 -0.082435295 0.018044623 0.07523363 0.0137182865 0.046912447 -0.04256511
-0.01727296 0.058866274 -0.018369626 0.070960924 -0.0074904375 -0.023180118 -0.014828367 0.017401457
-0.014584227 -0.09706431 -0.029782476 -0.010645923 -0.052930444 0.03972663 -0.011407807 0.019182978
0.088201895 0.008639118 -0.064686194 0.06508095 0.019536601 -0.045837298 -0.052537236 -0.0025016193
0.052944727 -0.057703733 -0.043529898 0.051938128 0.07202949 -0.023745786 0.084014945 -0.054893404
0.07014498 -0.10011684 0.0044750855 0.0076898 -0.038324013 -0.05089458 -0.018250113 0.059366547
0.0073816497 -0.03321807 0.09556312 0.033570886 0.037408102 0.0856277 0.093736544 0.059571423
0.097839564 -0.02088687 0.08229307 -0.045812964 0.07866005 -0.07863194 -0.038551845 0.056044262
-0.017697819 -0.019586036 -0.09530336 0.0007313299 0.01684815 -0.055598326 -0.036833435 -0.0625519
0.019828465 -0.0018228969 0.01792804 -0.067771815 0.009680568 0.003167155 -0.041361693 0.019988649
-0.06891301 0.07513351 -0.07738963 -0.040452395 -0.016745886 -0.047554705 -0.0033078876 -0.06478856
-0.037458688 -0.05398192 0.027553936 -0.063227296 0.05435048 0.07057461 -0.025775956 0.011943694
0.085065044 -0.050135516 0.029286658 0.083856285 -0.023372965 0.074706465 0.040275495 0.019017361
0.069295585 0.04608652 0.081080794 -0.061989393 -0.0023944916 0.063308164 0.020807756 0.0826163
-0.039692644 0.027975911 0.09942862 -0.04375062 0.025080858 -0.07555277 -0.032175668 0.08405258
0.002499343 -0.037052527 0.0593847 -0.086417384 -0.0760525 -0.0022814728 0.056169964 0.034353606
-0.05924941 -0.027075477 -0.055442475 0.060604047 0.05061631 0.048037577 -0.0031479415 0.044374846
0.055779364 -0.051231302 0.07062902 -0.06254903 0.012426356 -0.07347303 -0.023220984 0.052152466
0.026747137 -0.08955377 -0.043097474 0.03887124 0.086579904 -0.00045858446 -0.044199087 0.1030705
0.03580075 0.04124712 -0.057402115 0.091519654 0.087823674 0.0584753 0.08669697 0.06303259
0.08767293 -0.07383804 -0.03552819 -0.03236509 0.061484713 -0.055703424 0.021302179 -0.07220962
-0.06914796 0.0467752 0.03414192 0.050116617 0.012669724 0.046080768 0.023723911 -0.08653354
0.044928357 -0.037661344 -0.043529212 0.08648637 0.01773459 0.050830133 0.06283346 -0.023278577
-0.036431435 0.025792796 0.051757462 -0.05577597 -0.000108166634 0.033138916 0.04029445 -0.082527906
0.023626335 -0.0377916 0.004303778 0.051103473 -0.004456244 -0.081094585 -0.092537165 0.008217822
0.030655425 -0.05376093 0.013319912 -0.06485677 -0.034187403 0.07486671 0.09395041 0.032217838
0.046559434 0.058016997 0.05869009 -0.032935396 -0.003764297 -0.033248127 -0.029372362 0.081965506
00000000: d379 e7bb 6a8f 703c 1c3e 68bd c2be a3bd
00000010: ab10 933d dc21 1b3d f35a b53c 8ed8 9bbd
00000020: 0944 17bd 583d 713b 5a8a 95bd 8f25 81bd
00000030: b0f0 c43c b2f6 3c3d c790 7fbd c2b7 fabc
00000040: d041 a4bd 5383 63bb 0cd1 81bd e22b ad3b
00000050: 6af7 84bd c55f 7fbc d867 993d 954c 82bd
00000060: da3e 93bd 0583 e1bc cf6a 503d de2d b13d
00000070: 73e6 b6bd 90d7 353d d118 97bc e512 97bd
00000080: 50af 923c 3b09 6fbd c6d7 853d 7443 93bd
00000090: 2bf3 cf3c 0359 613d 65cd bbbc f533 8f3d
000000a0: ab5c cbbc 4962 213d d6d3 a8bd 51d2 933c
000000b0: 1714 9a3d aac2 603c 4427 403d c158 2ebd
000000c0: 0680 8dbc c31d 713d e67b 96bc f653 913d
000000d0: 5872 f5bb 3be4 bdbc aef2 72bc 808d 8e3c
000000e0: aff2 6ebc a7c9 c6bd 61fa f3bc 3d6c 2ebc
000000f0: 98cd 58bd 64b8 223d cfe7 3abc 9f25 9d3c
00000100: 32a3 b43d 168b 0d3c 327a 84bd 2949 853d
00000110: 390b a03c e4bf 3bbd 4931 57bd 35f2 23bb
00000120: 92dc 583d c05a 6cbd 684c 32bd 13bd 543d
00000130: 3284 933d 8686 c2bc 0710 ac3d e8d7 60bd
00000140: 2ca8 8f3d 0f0a cdbd bda3 923b b8fa fb3b
00000150: a4f9 1cbd d676 50bd 4381 95bc 562a 733d
00000160: c4e1 f13b ac0f 08bd 99b6 c33d a081 093d
00000170: 3d39 193d 935d af3d f2f8 bf3d 2a01 743d
00000180: 1c60 c83d f11a abbc 4589 a83d 60a6 3bbd
00000190: 8518 a13d c809 a1bd 8ae8 1dbd ab8e 653d
000001a0: 04fb 90bc e572 a0bc 682e c3bd b8b6 3f3a
000001b0: 2205 8a3c 12bb 63bd a8de 16bd 361b 80bd
000001c0: 4e6f a23c 45ee eeba d3dd 923c f3cb 8abd
000001d0: 3f9b 1e3c 0b90 4f3b e16a 29bd 3cbf a33c
000001e0: 4422 8dbd 99df 993d 747e 9ebd 69b1 25bd
000001f0: ab2e 89bc b9c8 42bd 25c9 58bb ddaf 84bd
00000200: 486e 19bd 251c 5dbd cbb8 e13c 507d 81bd
00000210: 9c9e 5e3d 6c89 903d 1928 d3bc 7caf 433c
00000220: 9536 ae3d e65a 4dbd 93ea ef3c d8bc ab3d
00000230: a978 bfbc b4ff 983d ebf7 243d 4cca 9b3c
00000240: d8ea 8d3d 38c5 3c3d b00d a63d 97e8 7dbd
00000250: e7ec 1cbb b6a7 813d 0775 aa3c bc32 a93d
00000260: c194 22bd bd2d e53c 3ba1 cb3d da33 33bd
00000270: 5f76 cd3c 69bb 9abd a2ca 03bd c223 ac3d
00000280: 04cc 233b 64c4 17bd 5f3d 733d 99fb b0bd
00000290: 6ac1 9bbd c384 15bb 7a12 663d 5eb6 0c3d
000002a0: 82af 72bd 64cd ddbc a617 63bd f33b 783d
000002b0: 0c53 4f3d 0dc3 443d b24d 4ebb 66c2 353d
000002c0: e778 643d ead7 51bd f3a5 903d b519 80bd
000002d0: ea97 4b3c 0779 96bd ef39 bebc d39d 553d
000002e0: d01c db3c f867 b7bd fa86 30bd 7337 1f3d
000002f0: ce50 b13d 2a6e f0b9 1a0a 35bd a016 d33d
00000300: cfa3 123d bdf2 283d 7b1e 6bbd a86e bb3d
00000310: e6dc b33d cc83 6f3d 2e8e b13d 3b17 813d
00000320: dd8d b33d 6638 97bd 0286 11bd 4291 04bd
00000330: 65d7 7b3d 4629 64bd e881 ae3c a3e2 93bd
00000340: 729d 8dbd 5a97 3f3d 66d8 0b3d 1547 4d3d
00000350: ad94 4f3c 30bf 3c3d a658 c23c 7f38 b1bd
00000360: cc06 383d c842 1abd b04b 32bd c41f b13d
00000370: 2248 913c 4233 503d d4ae 803d b7b2 bebc
00000380: 2139 15bd 6a4b d33c a2ff 533d 5875 64bd
00000390: 85d7 e2b8 acbc 073d cb0b 253d 6404 a9bd
000003a0: 048c c13c 5dcb 1abd b506 8d3b e051 513d
000003b0: af05 92bb eb14 a6bd 2084 bdbd 0ba4 063c
000003c0: 1621 fb3c 6c34 5cbd c33b 5a3c a0d3 84bd
000003d0: 1708 0cbd b853 993d 1369 c03d daf6 033d
000003e0: 1bb5 3e3d 3ba3 6d3d 0565 703d 44e7 06bd
000003f0: 6db2 76bb 302f 08bd 4f9e f0bc 88dd a73d

critic.linear1.bias f4 [128]
0.017751282 0.048846994 -0.020301025 0.09685568 0.09065659 -0.067365095 -0.06789863 0.033855252
-0.02442963 0.091452 0.0005053987 0.05444033 -0.07103264 0.012166545 -0.090967245 0.03942629
0.08827328 -0.04007054 -0.08206444 -0.0038117985 -0.07584769 -0.025088517 0.032750424 0.039900362
0.091670565 0.07847256 0.09229768 0.06256837 -0.074164145 0.09267136 0.06389002 -0.0026745095
0.05838739 0.085311614 -0.01309431 0.090981394 -0.04718912 0.07076207 0.08154895 -0.05155887
-0.056301665 -0.055852108 0.019972408 -0.061847482 -0.01943649 0.0777517 0.04983332 -0.023100298
-0.0020547798 -0.08505451 -0.0628874 0.051041633 0.07590655 0.026735496 -0.07897507 0.026683817
-0.045587912 0.079329245 0.031456094 0.04823593 0.07419254 0.013489197 -0.0588788 0.079123475
0.045914974 -0.04842851 -0.04382735 0.025396753 0.09250404 -0.089658186 0.027807279 0.0044349693
-0.073853865 -0.020840392 0.013215937 -0.017976746 0.0063115777 -0.062250957 0.028350843 0.028219296
-0.054477714 -0.06880136 0.07278247 -0.080076195 0.032005824 0.07005633 -0.003681011 -0.08724343
-0.04466633 0.048056193 -0.057000797 0.045020424 -0.06538574 -0.010321452 -0.071899734 0.058378644
0.09347869 -0.03923125 0.02461699 0.010802085 -0.08310998 0.02741259 -0.098599754 -0.049021248
-0.060954094 -0.027999295 -0.032966703 -0.009442818 -0.044266924 -0.060828805 0.062917784 -0.08007571
0.010623143 -0.08755772 0.08859494 0.057560164 -0.02585026 0.06320565 -0.05176724 0.011954072
-0.009715077 -0.06577881 0.07674984 -0.06302393 0.03603001 0.0071607013 0.014467886 0.016299656
00000000: 236b 913c c913 483d 564e a6bc 455c c63d
00000010: 2aaa b93d b6f6 89bd 700e 8bbd ceab 0a3d
00000020: a620 c8bc 304b bb3d bc7c 043a d3fc 5e3d
00000030: 9079 91bd 3056 473c 094d babd 767d 213d
00000040: 9fc8 b43d 0221 24bd 6711 a8bd 5ecf 79bb
00000050: 0956 9bbd 6f86 cdbc 4f25 063d 906e 233d
00000060: c7bd bb3d 39b6 a03d 9106 bd3d d823 803d
00000070: 5fe3 97bd 7bca bd3d c5d8 823d d346 2fbb
00000080: 9e27 6f3d dbb7 ae3d 8489 56bc 7454 ba3d
00000090: 6149 41bd b4eb 903d 2303 a73d 652f 53bd
000000a0: 939c 66bd 2ec5 64bd 2d9d a33c c953 7dbd
000000b0: 4639 9fbc 493c 9f3d 061e 4c3d d63c bdbc
000000c0: 7ca9 06bb 0f31 aebd 1ccb 80bd 0811 513d
000000d0: e574 9b3d 6604 db3c aebd a1bd 0598 da3c
000000e0: 64ba 3abd 5f77 a23d 1bd8 003d 0a93 453d
000000f0: 42f2 973d cb01 5d3c e62a 71bd 7d0b a23d
00000100: 5711 3c3d f95c 46bd 4f84 33bd da0c d03c
00000110: c272 bd3d b69e b7bd 17cc e33c 3853 913b
00000120: b240 97bd 78b9 aabc a887 583c f843 93bc
00000130: 5ad1 ce3b dcfa 7ebd 0740 e83c 272c e73c
00000140: 0624 5fbd bae7 8cbd fa0e 953d fdfe a3bd
00000150: 8a18 033d b179 8f3d 1e3d 71bb afac b2bd
00000160: 0bf4 36bd 92d6 443d ab79 69bd 5667 383d
00000170: f5e8 85bd 4f1b 29bc 2b40 93bd 721e 6f3d
00000180: c171 bf3d f2b0 20bd 92a9 c93c 3afb 303c
00000190: 9135 aabd 5e90 e03c abee c9bd 81ca 48bd
000001a0: 00ab 79bd c75e e5bc 1808 07bd 0db6 1abc
000001b0: 3c51 35bd a027 79bd 0adb 803d bcfe a3bd
000001c0: b10c 2e3c 7651 b3bd 4471 b53d 35c4 6b3d
000001d0: edc3 d3bc f771 813d e309 54bd 03db 433c
000001e0: fc2b 1fbc 0ab7 86bd 052f 9d3d b112 81bd
000001f0: 3494 133d 51a4 ea3b b60a 6d3c db86 853c
