landing_ckpt/ckpt_00000000.pt (torch, 399671 bytes, 15 tensors)

actor.linear1.weight f4 [128, 120]
0	0xbd1cc5e4	-0.03827466
1	0xbd80f9bc	-0.06297633
2	0xbd9c3154	-0.07626596
3	0xbcb628eb	-0.022236308
4	0x3d08bcae	0.033383064
5	0x3ce9e64c	0.028552197
6	0x3c06c2e7	0.008225179
7	0xbd05b2a2	-0.03264106
8	0x3d197688	0.037466556
9	0x3a27734f	0.0006387727
10	0x3ce727cf	0.028217224
11	0x3d174b15	0.03693684
12	0x3d8160be	0.0631728
13	0xbdb43ea1	-0.08801008
14	0xbd91d842	-0.07121326
15	0xbd565da6	-0.052335404
16	0xbd033f7e	-0.032042973
17	0x3d70e8d6	0.0588158
18	0xbb1de9eb	-0.0024095725
19	0xbd8fa981	-0.07014752
20	0x3c82cab7	0.015965803
21	0x3d5d9a8c	0.054102466
22	0xbd3b9201	-0.045793537
23	0x3d4afb23	0.04955591
24	0xbd8d2ca0	-0.06893277
25	0xbd9337b1	-0.07188357
26	0x3ce01984	0.027355917
27	0x3d0e1af8	0.03469369
28	0x3d90d305	0.07071499
29	0xbccca53c	-0.024981134
30	0x3d87c9dd	0.06630299
31	0x3d9fc292	0.07800783
32	0x3d2a6c13	0.041606974
33	0xbd990305	-0.07471279
34	0x3d7044be	0.058659308
35	0xbd1a72cd	-0.03770714
36	0xbcb2312a	-0.021751959
37	0xbd1bf451	-0.038074795
38	0x3d8c3ee2	0.068479314
39	0x3d4a223d	0.04934906
40	0x3d86e5d9	0.06586809
41	0x3c4b0645	0.0123916315
42	0xbc1b6e87	-0.009486801
43	0xbcfa1e0d	-0.030531907
44	0x3d1f3bfa	0.038875557
45	0x3c8f1062	0.017463867
46	0x3cbc5c59	0.022993254
47	0x3d9d493e	0.076799855
48	0xbbbe8031	-0.0058136215
49	0x3c5f1bae	0.013617439
50	0x3d7885d0	0.06067449
51	0x3d178f47	0.037001874
52	0x3ced3cb6	0.028959613
53	0xbbeef9ae	-0.0072929477
54	0x3da76f49	0.08175523
55	0xbdb2f87a	-0.087387994
56	0xbdab5750	-0.08366263
57	0xbdb122e6	-0.086492345
58	0xbcbf392a	-0.023342688
59	0x3d3d77c1	0.046256784
60	0x3d26e8e6	0.040749453
61	0x3d8bac53	0.068199776
62	0xbbe88d7f	-0.007096946
63	0x3d3eb886	0.046562694
64	0xbcbe517a	-0.02323221
65	0x3db7b995	0.08970944
66	0x3d213f72	0.039367147
67	0xbd9799c8	-0.07402378
68	0x3ccdde9e	0.025130566
69	0xbcfb7c0f	-0.030698804
70	0x3db0b255	0.08627764
71	0x3a8be398	0.0010672687
72	0x3d5300d8	0.051514477
73	0xbd08b2b9	-0.03337357
74	0x3c817b3a	0.01580583
75	0xbd9013a5	-0.07034997
76	0x3d842281	0.064518936
77	0x3d731d41	0.05935407
78	0x3c8ef8f8	0.017452702
79	0xbd30a800	-0.043128967
80	0xbc9d8b08	-0.019231334
81	0x3db62c96	0.08895223
82	0xbcc21509	-0.023691671
83	0x3d8d4ef3	0.06899824
84	0xbd807b2a	-0.06273492
85	0x3af766ac	0.0018875203
86	0x3d366256	0.044527374
87	0xbd8a5ea3	-0.06756332
88	0x3dba2400	0.09088898
89	0xbc37c87c	-0.011217233
90	0x3da6ab1b	0.081381045
91	0x3d6ee364	0.058322325
92	0x3bdf6a4f	0.006818093
93	0xbd557e21	-0.05212224
94	0xbc9ec9c1	-0.019383313
95	0xbacefdde	-0.0015792211
96	0xbda47668	-0.08030397
97	0xbb99a75b	-0.00468914
98	0xbda5b2f6	-0.08090775
99	0x3cc3de11	0.0239096
100	0x3cd59307	0.026071085
101	0xbd8475ac	-0.06467757
102	0x3d1707a1	0.03687251
103	0xbd9e2dfe	-0.07723616
104	0x3d2b8dea	0.041883387
105	0xbc1ffc5c	-0.009764757
106	0xbdae8512	-0.08521475
107	0x3afe1743	0.0019385595
108	0x3d807c69	0.06273729
109	0xbc1ecd1d	-0.0096924575
110	0xbd91925f	-0.07107996
111	0xbd3803f6	-0.044925652
112	0x3d80a43c	0.06281325
113	0x3cc46ffa	0.023979176
114	0x3d87319c	0.06601259
115	0xbd6be2d7	-0.05758938
116	0x3d529bb2	0.051418014
117	0x3ccbed55	0.024893442
118	0x3da069b6	0.07832663
119	0x3ceb2c57	0.028707666
120	0x3da09835	0.07841531
121	0x3d3f610b	0.046723407
122	0xbcf0b4c1	-0.029383065
123	0xbb971f20	-0.0046118647
124	0x3db57da0	0.08861852
125	0xbd799903	-0.06093694
126	0x3d833f30	0.064085364
127	0xbd6f38b1	-0.058403675
128	0xbd85941b	-0.065223895
129	0xbc657ea6	-0.014007246
130	0x3d76083e	0.060066454
131	0x3ca8e47c	0.020616762
132	0x3d9f01a1	0.077639826
133	0xbdb1344c	-0.08652553
134	0xbca67302	-0.020318512
135	0x3d812687	0.06306177
136	0x3a3c588e	0.00071848265
137	0xbdaee6b0	-0.08540094
138	0x3ccfb601	0.02535534
139	0x3d7937d0	0.060844243
140	0x3ccd5bda	0.025068212
141	0xbcb21438	-0.021738157
142	0xbc509e9d	-0.012733129
143	0x3d9a9c55	0.07549349
144	0x3d6a52f8	0.05720803
145	0xbc9d41fa	-0.0191965
146	0x3d2f117f	0.042741295
147	0x3d8cc866	0.068741605
148	0xbd01a4c2	-0.031651266
149	0x3bab63c5	0.0052303993
150	0xbd8a4526	-0.0675147
151	0x3dbb8dd1	0.09157909
152	0xbd08afd6	-0.033370815
153	0x3c7d3ebc	0.015456852
154	0x3ba27ab6	0.004958476
155	0xbd8959ee	-0.06706606
156	0xbd05f776	-0.0327067
157	0xbd9b0e03	-0.07571032
158	0xbd9d7094	-0.07687488
159	0x3c6ee97f	0.014582037
160	0xbd385578	-0.045003384
161	0x3cbc986c	0.0230219
162	0x3daae535	0.08344499
163	0xbd75d92c	-0.060021564
164	0x3ca5600e	0.020187404
165	0x3db4660d	0.08808527
166	0x3cd3dd34	0.025862314
167	0x3d22aae9	0.039713774
168	0xbdb50555	-0.08838908
169	0xbd646949	-0.05576447
170	0x3bdee743	0.006802471
171	0xbcde7e2d	-0.027159775
172	0x3db244a6	0.087045
173	0xbd90734b	-0.070532404
174	0x3d263b91	0.04058415
175	0xbd913d2e	-0.07091747
176	0xbd9fe2dc	-0.07806942
177	0xbcf304dc	-0.029665403
178	0x3bc621bb	0.0060465015
179	0x3d6942cd	0.05694847
180	0x3c73806e	0.014862163
181	0xbd7ba4a8	-0.061436325
182	0x3d5e2412	0.054233618
183	0x3abfc749	0.0014631535
184	0xbcaade5a	-0.020857979
185	0xbd96970f	-0.07353031
186	0x3d2f8663	0.04285277
187	0xbcd351c3	-0.025795823
188	0xbdae0bb6	-0.084983274
189	0xbc4cb291	-0.012493745
190	0xbc9b94bf	-0.018991826
191	0xbd49c045	-0.04925563
192	0xbcd78b5b	-0.026311567
193	0xbc98d21d	-0.018654877
194	0xbc939f95	-0.01802043
195	0xbd94c269	-0.07263643
196	0x3ab9c87f	0.0014174132
197	0x3c5d2bda	0.013499225
198	0xbd65892b	-0.056039017
199	0x3d0eceb0	0.03486508
200	0x3d538f5c	0.05165039
201	0xbcdf4273	-0.027253365
202	0xbd4c8221	-0.049928788
203	0x3d9744c2	0.073861614
204	0x3db319a8	0.08745128
205	0x3c594e6a	0.013263324
206	0x3cca3ee3	0.02468819
207	0xbda8e38d	-0.08246527
208	0xbc33a644	-0.010964934
209	0x3d0a6c03	0.033794414
210	0x3d162f8b	0.036666434
211	0xbd89463e	-0.06702851
212	0xbdb7f80c	-0.08982858
213	0xbd209786	-0.039207004
214	0x3daadeef	0.083433025
215	0x3d33c077	0.04388472
216	0x3c4d4c00	0.012530327
217	0xbdabe8da	-0.08394022
218	0x3c5a6265	0.013329123
219	0x3daa2013	0.08306899
220	0xbda84fea	-0.082183674
221	0x3adf53ba	0.0017038502
222	0xbdb2acb8	-0.0872435
223	0xbcd4a3d0	-0.025957018
224	0xbda35e15	-0.07976929
225	0x3cc6415c	0.024201088
226	0xbd7b8552	-0.06140644
227	0xb890116f	-6.869702e-05
228	0x3d3f0048	0.046631128
229	0x3cd69eb5	0.026198724
230	0xbd812e1e	-0.06307624
231	0xbdb572d3	-0.088597916
232	0x3d31e7c1	0.04343391
233	0x3bbbabea	0.005727281
234	0x3c0d3298	0.0086180195
235	0x3d1cf064	0.038315192
236	0xbd872bb9	-0.06600136
237	0xbd9d8307	-0.07691007
238	0xbd8c50ae	-0.06851326
239	0xbd26c628	-0.04071632
240	0xbd24edb8	-0.04026577
241	0xbcbbdad5	-0.022931496
242	0x3c166a74	0.009180654
243	0x3c9bdf05	0.019027242
244	0x3cc123b2	0.023576591
245	0xbdb050cc	-0.08609161
246	0xbdac9658	-0.08427113
247	0x3d0c42ba	0.034243323
248	0xbd4d072f	-0.05005568
249	0xbd18f2f3	-0.03734107
250	0x3cecb36e	0.028894152
251	0xbbaa2664	-0.005192565
252	0x3c65b10a	0.01401926
253	0x3d88bed2	0.06677021
254	0xbd209f64	-0.039214507
255	0x3d441855	0.047874767

actor.linear1.bias f4 [128]
0	0x3d426ab7	0.047465052
1	0x3db6a4fe	0.089181885
2	0xbced505a	-0.028968979
3	0x3d98b157	0.074557
4	0x3d8cf433	0.06882515
5	0x3d9495a1	0.07255102
6	0xbd445a2d	-0.04793756
7	0x3d5af4e2	0.053456195
8	0xbd3bad88	-0.04581979
9	0x3d2b3342	0.04179693
10	0x3d66f949	0.05639008
11	0xbc30517c	-0.010761615
12	0xbc3cbf87	-0.011520273
13	0x3d571171	0.052506868
14	0xbc824444	-0.015901692
15	0x3c987eb7	0.01861511
16	0xbdaa0844	-0.08302358
17	0xbdb4d1fc	-0.08829114
18	0x3d981e97	0.074277095
19	0x3d0d6036	0.034515582
20	0x3d909deb	0.070613705
21	0x3d527610	0.051382124
22	0x3c8f576c	0.01749774
23	0xbd9554dc	-0.07291576
24	0xbd56ec18	-0.05247125
25	0x3ba502f0	0.0050357506
26	0xbd924c3d	-0.071434475
27	0x3d0250a8	0.0318152
28	0xbb2e3948	-0.0026584435
29	0x3c5821af	0.013191625
30	0xbc40a1cd	-0.011757326
31	0xbc074a15	-0.008257409
32	0xbcc31355	-0.02381293
33	0x3d9a5eec	0.07537636
34	0xbd8214f5	-0.063516535
35	0x3d43f3db	0.04783998
36	0x3b7ad44b	0.003827351
37	0x3cd7f97c	0.02636408
38	0x3d9ac92f	0.07557904
39	0xbd9a05e7	-0.07520657
40	0x3d1c2cb7	0.03812858
41	0x3d8e9fc8	0.069640696
42	0x3bd55285	0.0065100812
43	0xbd0ad140	-0.033890963
44	0xbcbd810f	-0.023132829
45	0xbb68bfdd	-0.003551475
46	0x3d6f22b4	0.058382705
47	0xbce3c6a4	-0.02780468
48	0xbd2739a6	-0.040826462
49	0x3d4cdfc9	0.050018106
50	0x3daaee22	0.083462015
51	0x3c8c826b	0.017152032
52	0x3d2eb1ca	0.04265002
53	0xbda7e575	-0.08198062
54	0x3d916fa0	0.07101369
55	0xbcab776a	-0.020930964
56	0xbdac652b	-0.08417734
57	0xbd820c5a	-0.06350012
58	0x3d5dbfa6	0.05413785
59	0x3c8b09ca	0.016972441
60	0xbd9fec4b	-0.07808741
61	0xbb8c9a56	-0.004290859
62	0xbdb3c09e	-0.08776973
63	0xbd6add2d	-0.057339836
64	0x3d3041aa	0.043031372
65	0xbb5e633d	-0.0033933662
66	0xbc643cc6	-0.013930505
67	0x3d4a80ca	0.04943923
68	0xbd9aa411	-0.075508244
69	0xbd25cf2e	-0.040480785
70	0xbdb7dd74	-0.08977786
71	0xbcae0c18	-0.021246001
72	0xbd02050c	-0.031743094
73	0xbd0a2877	-0.033729997
74	0xbd085dfb	-0.03329275
75	0x3cfde8dd	0.030994827
76	0xbd51bce6	-0.05120554
77	0xbd1e0a0e	-0.038583808
78	0x3d43dd7b	0.047818642
79	0x3c1f2940	0.009714425
80	0x3d18bc20	0.037288785
81	0x3abd7316	0.0014453854
82	0xbcb85a7d	-0.022504086
83	0x3dba1562	0.0908611
84	0x3c1a1910	0.009405389
85	0x3dacd1b3	0.084384345
86	0x3d69f647	0.057119634
87	0xbdab45ff	-0.0836296
88	0x3d837962	0.06419636
89	0xbcc24d19	-0.023718404
90	0x3c799b84	0.015234832
91	0xbd4fb682	-0.050711162
92	0xbd9bbbb5	-0.07604162
93	0x3d5b3e4f	0.05352622
94	0xbc62c98b	-0.013841997
95	0xbb507cc6	-0.0031812652
96	0x3d3d8d48	0.046277314
97	0x3d4b7cd3	0.04967959
98	0xbdb6bec0	-0.089231014
99	0xbd2216d6	-0.03957256
100	0x3da6a9d5	0.08137862
101	0x3dabb8bc	0.08384845
102	0xbd34059c	-0.043950662
103	0xbcbc49f6	-0.022984486
104	0xbda0321a	-0.07822056
105	0x3c9339ef	0.01797196
106	0x3d1b7688	0.037954837
107	0xbd8f57df	-0.06999182
108	0xbd7df028	-0.06199661
109	0x3ca903d4	0.020631708
110	0xbc72a46e	-0.014809711
111	0x3d0c13e2	0.03419865
112	0xbd837b57	-0.064200096
113	0x3d0b8d4a	0.03407029
114	0x3d9ee1ca	0.077579096
115	0xbd3da1ac	-0.04629676
116	0xbc8738cd	-0.016506577
117	0x3d145ba2	0.0362202
118	0xbd3a4d7a	-0.045484044
119	0x3c7f6756	0.015588602
120	0xbd046452	-0.032322235
121	0xbd83b5e7	-0.064311795
122	0x3d883a73	0.06651773
123	0xbd928ef1	-0.0715617
124	0x3b95aa2c	0.004567405
125	0xbcb69767	-0.022288991
126	0xbd9613d7	-0.07328003
127	0xbd294bec	-0.04133217

actor.linear2.weight f4 [128, 128]
0	0xbd581f91	-0.05276448
1	0x3d0bf6fd	0.034171093
2	0x3cdb35b8	0.026759014
3	0x3d6f8df8	0.058485
4	0x3d63b90a	0.05559639
5	0xbc98309d	-0.018577868
6	0xbd270054	-0.040771797
7	0xbc95de9f	-0.01829463
8	0x3c464677	0.012101761
9	0x3c4e3304	0.012585405
10	0xbd380481	-0.04492617
11	0xbd0636f6	-0.03276726
12	0xbd7c274f	-0.061560925
13	0xbd76f164	-0.0602888
14	0x3d5f9a5e	0.054590575
15	0x3da1720f	0.07883083
16	0x3bc7d87f	0.0060988064
17	0xbcf0539e	-0.029336747
18	0xbd2248a0	-0.03962004
19	0x3d4209b0	0.04737252
20	0xbd3a12e2	-0.045428164
21	0xbdb4eaba	-0.08833833
22	0x3da3b0a2	0.079926744
23	0x3cadf4b9	0.021234857
24	0x3d7f1a88	0.06228116
25	0xbcf8e1f4	-0.03038118
26	0x3db2e2b4	0.087346464
27	0xbd8bd78c	-0.06828222
28	0x3c893d80	0.016752958
29	0xbcde73bb	-0.027154794
30	0x3dac07be	0.08399914
31	0x3c94a03e	0.018142816
32	0x3d9fb8ef	0.07798945
33	0x3d87a780	0.06623745
34	0xbd405afc	-0.04696177
35	0xbd11584f	-0.03548461
36	0xbd69cf36	-0.057082377
37	0x3c2f4e4d	0.010699821
38	0x3da16900	0.07881355
39	0xba473603	-0.0007599296
40	0x3d6f44ff	0.05841541
41	0xbd5c3265	-0.053758997
42	0xbd8b16a4	-0.06791428
43	0x3d966e0e	0.0734521
44	0xbd8dee7f	-0.06930255
45	0x3d7de39a	0.061984636
46	0x3d86cf9e	0.065825686
47	0xbda538af	-0.08067452
48	0xbd0f705a	-0.035019256
49	0x3c01230e	0.007881893
50	0x3da9a590	0.08283532
51	0xbd5920a1	-0.053009633
52	0xbb90c8ac	-0.004418453
53	0xbd4b9eb0	-0.049711883
54	0x3d9e52c7	0.07730632
55	0x3ca395b6	0.019968849
56	0x3c734827	0.014848745
57	0xbad9d111	-0.0016618093
58	0xbd90425b	-0.07043906
59	0x3da70913	0.08156028
60	0xbd99e557	-0.07514446
61	0xbd47ccd6	-0.04877933
62	0x3d965067	0.07339554
63	0xbcbe5bb9	-0.023237096
64	0xbdad5200	-0.08462906
65	0x3da18d25	0.07888249
66	0xbd92d55e	-0.07169603
67	0x3d943946	0.072374865
68	0x3b09a29d	0.0021001466
69	0xbb7d0c03	-0.0038611896
70	0x3d974d3c	0.07387778
71	0xbda6d3de	-0.08145879
72	0xbaa76581	-0.0012771339
73	0xbcdcf6dd	-0.026973182
74	0x3c16be7a	0.009200687
75	0x3d91b345	0.07114271
76	0xbcd3e78e	-0.02586725
77	0xbb7f2a4e	-0.0038935128
78	0xbd6cd54c	-0.057820603
79	0x3d5740ee	0.052552156
80	0x3cfecb59	0.031102823
81	0x3d7fd29e	0.06245672
82	0xbdaf9b4f	-0.08574545
83	0xbd8d796a	-0.069079235
84	0x3d7caaf2	0.061686464
85	0xbd6d9f36	-0.058013164
86	0x3d2589ec	0.040414736
87	0xbcd78d55	-0.02631251
88	0x3dae2e5e	0.085049376
89	0x3cb04ba3	0.021520441
90	0xbd615233	-0.055010032
91	0xbd97a5b4	-0.07404652
92	0xbd46d361	-0.04854143
93	0x3d2491e6	0.040178202
94	0xbcde96a7	-0.027171446
95	0x3bee44ca	0.007271384
96	0xbdb02c0a	-0.0860215
97	0xbd73f7f3	-0.059562635
98	0xbd2ee153	-0.042695355
99	0xbd105f85	-0.035247345
100	0xbd86065a	-0.0654418
101	0x3c2360ec	0.009971838
102	0xbcfb336d	-0.03066417
103	0xbd86b225	-0.06576947
104	0x3d9ba6b1	0.07600153
105	0x3d37a001	0.044830326
106	0x3db0c794	0.086318165
107	0xbd73bcda	-0.059506275
108	0x3d3d0b23	0.0461532
109	0x3ca6dfbf	0.020370362
110	0xbd546f68	-0.051864058
111	0x3ce1231f	0.027482567
112	0xbce29db0	-0.027663082
113	0x3da01acd	0.07817612
114	0x3d85f038	0.06539959
115	0x3cf1b3ea	0.029504735
116	0x3c893864	0.016750522
117	0xbd6418d8	-0.055687755
118	0x3d753472	0.05986447
119	0x3c0297b2	0.007970737
120	0xbd25ec04	-0.040508285
121	0xbda1b065	-0.07894973
122	0x3da2d099	0.07949943
123	0x3d978e6d	0.074002124
124	0x3c79f5b7	0.015256337
125	0xbd9a7747	-0.075422816
126	0x3d8d289e	0.06892513
127	0x3b47b1de	0.0030471007
128	0xbd91c028	-0.07116729
129	0x3d616cc8	0.055035383
130	0xbd162ef5	-0.036665875
131	0xbc94ea86	-0.018178236
132	0xbbdcf877	-0.0067434865
133	0xbda88b0b	-0.08229645
134	0x3c54a92a	0.012979785
135	0x3d41fbe3	0.04735936
136	0xbc4e4fab	-0.0125922365
137	0x3daece07	0.0853539
138	0xbcbe4885	-0.02322794
139	0xbd8b1a7e	-0.06792162
140	0x3ccf5649	0.025309699
141	0x3cf53863	0.029934114
142	0xbc33d8b3	-0.010976958
143	0x3c2bf2d9	0.010494911
144	0x3b472a20	0.0030390099
145	0xbd8d5fbd	-0.06903026
146	0xbc9b51e5	-0.018959949
147	0x3d3b12fb	0.045672398
148	0xbd868f2a	-0.06570275
149	0x3c99680c	0.018726371
150	0xbd9d242c	-0.07672915
151	0xbd069bf5	-0.032863576
152	0x3cfdd0c5	0.030983338
153	0xbd9882d8	-0.074468315
154	0xbd1228ad	-0.035683323
155	0x3daa49f4	0.08314887
156	0x3d7b9ff4	0.06143184
157	0xbcc9b402	-0.024621967
158	0xbca26159	-0.01982181
159	0xbdad8604	-0.08472827
160	0x3d62c429	0.055362854
161	0x3cf0c4d1	0.029390724
162	0x3ca3f81c	0.020015769
163	0xbda64ec8	-0.08120495
164	0x3d39ee1c	0.045393094
165	0x3c97f6d3	0.018550312
166	0x3d1cc0e2	0.038269885
167	0x3c95191a	0.018200446
168	0xbd7c597f	-0.061608788
169	0xbd00e932	-0.031472392
170	0xbd40b9c4	-0.04705216
171	0x3d29c617	0.04144868
172	0xbbeeba86	-0.007285419
173	0xbd134363	-0.035952937
174	0xbc160486	-0.009156352
175	0x3d0dc96c	0.03461592
176	0x3dab32d3	0.08359303
177	0xbd813dd0	-0.06310618
178	0xbda84327	-0.08215933
179	0x3d814e2a	0.06313737
180	0x3d5ce990	0.05393368
181	0x3d51e51b	0.051243883
182	0x3dac4f3b	0.084135495
183	0xbd6b902e	-0.057510547
184	0xbda09f29	-0.078428574
185	0xbc882d9a	-0.016623307
186	0x3cec62fe	0.028855797
187	0xbd43dc2c	-0.047817394
188	0x3da686d3	0.081311844
189	0x3d722c68	0.05912438
190	0x3d8b50b8	0.06802505
191	0xbc3c0b59	-0.011477315
192	0xbb7fc156	-0.003902515
193	0xbcccde1c	-0.025008254
194	0x3d3d28cd	0.04618149
195	0x3bb01178	0.005373176
196	0xbd9121ea	-0.07086547
197	0x3d6d6187	0.057954337
198	0x3d8fd574	0.07023135
199	0xbd78f11a	-0.060776807
200	0x3db47ac7	0.088124804
201	0xbd1d9810	-0.038475096
202	0xbc6c4e2f	-0.014422937
203	0x3b35bec2	0.0027732109
204	0xbd63ca03	-0.055612575
205	0x3cb9d685	0.022685299
206	0x3d0d5d1a	0.034512617
207	0xbc928f38	-0.017890558
208	0x3d492e98	0.0491167
209	0xbda5ff31	-0.081053145
210	0x3d9fa39b	0.07794877
211	0x3db26df4	0.08712378
212	0xbd13caef	-0.036082204
213	0x3d6c26ed	0.05765431
214	0x3bc0ec92	0.0058875764
215	0x3d8e2353	0.06940331
216	0x3c83f875	0.016109684
217	0xbdb3a5c7	-0.08771854
218	0xbd35a98d	-0.04435115
219	0x3cdd8e8f	0.027045516
220	0x3d93fd96	0.07226102
221	0x3d828459	0.063728996
222	0xbab1fe5b	-0.0013579832
223	0xbc2cd96a	-0.010549882
224	0xbd823cf0	-0.06359279
225	0x3d9d1c66	0.07671432
226	0xbc024dc1	-0.007953108
227	0x3d71002f	0.058838066
228	0xbc973345	-0.018457064
229	0x3d454678	0.048162907
230	0xbc8786dc	-0.016543798
231	0x3d0d25ce	0.03445988
232	0xbc6af21b	-0.014339949
233	0x3d42e2fa	0.047579743
234	0xbc9ef1c1	-0.019402387
235	0xbbb30d66	-0.0054642437
236	0x3c927387	0.017877353
237	0x3beeafab	0.007284125
238	0x3d917062	0.071015134
239	0x3d846113	0.06463828
240	0xbd6e0fb0	-0.05812043
241	0xbd5728a5	-0.052528996
242	0xbd215016	-0.039383017
243	0xbafffd45	-0.0019530436
244	0x3db32f86	0.08749299
245	0xbd410e52	-0.047132798
246	0x3d07c033	0.03314228
247	0x3ce62ef2	0.028098557
248	0x3cf04ce7	0.029333545
249	0xbc2b0960	-0.010439247
250	0xbda14b5e	-0.07875703
251	0xbd134d66	-0.035962485
252	0x3cd62fd2	0.02614585
253	0x3d90bdd0	0.07067454
254	0xbb31df8a	-0.0027141296
255	0xbd68843a	-0.056766726

actor.linear2.bias f4 [128]
0	0xbda74836	-0.0816807
1	0x3da65a92	0.08122744
2	0x3cd9121b	0.026497891
3	0xbd70b699	-0.05876789
4	0xbd3f8931	-0.046761695
5	0x3bbf609b	0.0058403737
6	0xbd9a2fc7	-0.07528644
7	0x3d9c5e41	0.07635165
8	0x3d5220d4	0.05130084
9	0xbd9c90d9	-0.07644815
10	0xbd44ed64	-0.048077956
11	0x3d679aa8	0.056543976
12	0x3c1aa470	0.009438619
13	0xbd4cc249	-0.049989972
14	0x3c9ab0b8	0.018883094
15	0x3c34feb6	0.011047056
16	0x3c90ddd9	0.01768391
17	0xbd8d28ca	-0.068925455
18	0xbc71084f	-0.014711454
19	0xbd99d390	-0.075110555
20	0xbbf4b5f5	-0.00746798
21	0xbd4802fc	-0.04883097
22	0xbda3731e	-0.07980941
23	0x3cf50cd6	0.029913347
24	0xbd932c6b	-0.071862064
25	0x3d8b88ab	0.06813177
26	0x3c00ebc3	0.00786871
27	0x3da94865	0.08265761
28	0x3beb2c24	0.007176893
29	0x3db24b7d	0.087058045
30	0x3d09d044	0.033645883
31	0xbd35b8cb	-0.044365685
32	0xbcd46c60	-0.025930583
33	0xbd59267c	-0.053015217
34	0xbd7bff38	-0.061522692
35	0xbd04d611	-0.032430712
36	0x3d4f3089	0.050583396
37	0x3d505121	0.05085862
38	0xbdac63c9	-0.0841747
39	0xbdb088a0	-0.08619809
40	0x3d1054e8	0.035237223
41	0xbd920225	-0.07129315
42	0xbd9c6e6f	-0.07638251
43	0x3d0e358b	0.03471903
44	0xbda6ea2c	-0.081501335
45	0xbdb18042	-0.08667041
46	0xbda5cbd8	-0.08095521
47	0xbd7c0561	-0.061528567
48	0x3b82c34f	0.0039905678
49	0x3d3a6619	0.045507524
50	0xbcef7113	-0.029228723
51	0xbb97097a	-0.004609284
52	0x3d8d57b2	0.06901492
53	0xbca94d45	-0.020666728
54	0x3d29332d	0.04130857
55	0x3c4762b8	0.0121695325
56	0xbc97ac4b	-0.018514773
57	0xbc0837e4	-0.008314107
58	0x3d90a6e2	0.0706308
59	0xbd75dbb1	-0.060023967
60	0xbcffb622	-0.031214777
61	0xbd9687ef	-0.07350146
62	0x3c27f319	0.01025083
63	0x3c93d400	0.018045425
64	0xbc41f710	-0.011838689
65	0x3d4acf9d	0.0495144
66	0xbc212191	-0.009834663
67	0x3d1b1ee0	0.03787124
68	0xbcf78113	-0.030212915
69	0xbdb1cf02	-0.08682062
70	0xbda7bb0f	-0.081899755
71	0x3da662ae	0.081242904
72	0x3c98369f	0.018580733
73	0x3d577403	0.05260087
74	0xbd532513	-0.05154903
75	0x3d1f4be2	0.038890727
76	0x3d2df98d	0.04247432
77	0xbd245b1b	-0.040125947
78	0xbcfebbff	-0.031095503
79	0xbd5adb48	-0.05343178
80	0x3db31532	0.08744277
81	0x3d9c7127	0.076387696
82	0xbd99c173	-0.07507601
83	0xbd8293ba	-0.06375833
84	0x3beb2281	0.007175744
85	0x3d0de051	0.034637753
86	0x3d99f6e6	0.07517795
87	0xbd84a0fe	-0.06476019
88	0xbbb9403f	-0.0056534107
89	0xbd9dda5c	-0.07707664
90	0x3d49161f	0.049093362
91	0xbd259d65	-0.040433306
92	0xbd75538b	-0.059894126
93	0xbd9bfad8	-0.07616204
94	0x3c543143	0.012951198
95	0x3d853342	0.06503917
96	0xbdafee27	-0.08590346
97	0xbda830af	-0.08212411
98	0xbd800b18	-0.06252116
99	0x3d01f23a	0.031725146
100	0x3cc3a657	0.023883028
101	0xbc37534c	-0.011189293
102	0x3bd75cc6	0.0065723388
103	0x3d2cf937	0.042229857
104	0x3c9c2bfe	0.019063946
105	0x3ceed753	0.029155409
106	0xbd62ffc2	-0.05541969
107	0xbd6ff137	-0.05857965
108	0x3d8fdc34	0.07024422
109	0xbd81e551	-0.06342567
110	0x3d23276e	0.039832525
111	0xbc0bb740	-0.008527577
112	0xbb8ec69b	-0.0043571717
113	0x3a9cd361	0.0011964851
114	0x3d60c9a5	0.054879803
115	0xbd459252	-0.048235245
116	0x3d2c347a	0.042042233
117	0x3d87c5a1	0.066294916
118	0x3d47c749	0.048774038
119	0xbd5de421	-0.05417264
120	0x3cda258c	0.026629232
121	0x3cfa3199	0.030541228
122	0x3d69af5e	0.05705201
123	0xbb000d7d	-0.001953929
124	0x3d6d1b18	0.057887167
125	0xbdb5a034	-0.08868447
126	0xba00f8dd	-0.0004919896
127	0xbcdf4fe1	-0.027259769

actor.linear3.weight f4 [128, 128]
0	0x3ca2a120	0.019852221
1	0xbd0c6709	-0.03427795
2	0xbc28eedd	-0.010310856
3	0xbce3e7ca	-0.027820487
4	0x3c665549	0.0140584195
5	0x3d8279ea	0.063709095
6	0x3d0289fa	0.031869866
7	0xbd2f1d4a	-0.04275254
8	0x3d8008b0	0.06251657
9	0xbc510703	-0.012758019
10	0x3c650759	0.013978803
11	0xbda1f0d6	-0.07907264
12	0x3d3c4dbb	0.045972567
13	0x3d379da4	0.044828072
14	0xbd093f7f	-0.03350782
15	0xbc49501b	-0.012287165
16	0x3d9481d1	0.07251323
17	0x3bcbc4ae	0.0062185144
18	0xbd667c49	-0.05627087
19	0xbd400829	-0.046882782
20	0xbbad73d2	-0.005293348
21	0xbcc99b03	-0.024610048
22	0xbd8ef5ae	-0.069804534
23	0x3ca56336	0.020188909
24	0xbc3ae79e	-0.011407761
25	0xbb5d7b8b	-0.0033795561
26	0xbd7b41e7	-0.061342146
27	0xbce29f04	-0.027663715
28	0x3db1e60a	0.086864546
29	0x3d808020	0.06274438
30	0x3db02fca	0.08602865
31	0xbbe1cf09	-0.0068911356
32	0xbccfb980	-0.025357008
33	0x3d24c071	0.04022259
34	0x3d16a356	0.036776863
35	0xbbaea09c	-0.0053292047
36	0x3d2dbb84	0.042415157
37	0xbd2f6662	-0.04282225
38	0xbd2435df	-0.040090438
39	0x3b143ae6	0.0022618114
40	0x3d8f4d0a	0.06997116
41	0xbc813511	-0.015772374
42	0xbd8f4c4a	-0.06996973
43	0x3daeefd9	0.08541841
44	0xbc13bff7	-0.009017936
45	0xbda42548	-0.08014923
46	0x3d8c5f2e	0.068540916
47	0xbd81c7c1	-0.06336928
48	0x3d978036	0.07397501
49	0xbd527a4d	-0.051386166
50	0x3c13d489	0.00902284
51	0x3d097c35	0.03356572
52	0x3cbe676f	0.02324268
53	0xbd94ce52	-0.07265915
54	0x3c27035d	0.010193673
55	0xbd30c184	-0.0431533
56	0xbda8270b	-0.08210572
57	0x3da6a61a	0.0813715
58	0x3c2103d1	0.00982757
59	0xbd4d3d35	-0.0501072
60	0x3cff5449	0.03116812
61	0xbc875337	-0.016519172
62	0xbd52e5bc	-0.051488623
63	0xbd0f7345	-0.03502204
64	0x3b37b931	0.0028033967
65	0x3c7954cf	0.015217974
66	0x3d8776b6	0.06614439
67	0x3d1653b0	0.036700904
68	0xbd187603	-0.03722192
69	0xbd4ce0f0	-0.050019205
70	0xbcfec760	-0.031100929
71	0x3d92e8f8	0.071733415
72	0x3d883638	0.066509664
73	0xbc8ef175	-0.01744912
74	0x3d063b54	0.032771423
75	0x3da6ab21	0.08138109
76	0xbaea9041	-0.0017895774
77	0x3d0a7c7a	0.033810116
78	0xbda9d716	-0.082929775
79	0x3d16d2ca	0.036822118
80	0xbb18d874	-0.0023322375
81	0xbd9fc3a2	-0.07800986
82	0xbdb1dc67	-0.086846165
83	0x3d8571c3	0.06515839
84	0xbd81b102	-0.0633259
85	0xbc2c458a	-0.010514626
86	0xbdb28d4b	-0.08718356
87	0x3d08e39e	0.033420198
88	0x3d5bad88	0.05363229
89	0x3c86e0a4	0.016464539
90	0xbc71ec20	-0.014765769
91	0x3c96b710	0.018397838
92	0xbd936690	-0.071972966
93	0x3d3c6e7b	0.0460038
94	0x3d7efee6	0.06225481
95	0x3a9b345f	0.0011841169
96	0xbda8e09c	-0.08245966
97	0x3d0e1a3c	0.034692988
98	0xbda619e7	-0.08110409
99	0xbd774c4a	-0.06037549
100	0xbd8836ad	-0.066510536
101	0xbd8770ff	-0.06613349
102	0xbd9f432e	-0.077764854
103	0xbb3f2d54	-0.0029171305
104	0x3db025d0	0.08600962
105	0x3c394f93	0.011310476
106	0xbdb24c1f	-0.08705925
107	0xbb5609e5	-0.0032659706
108	0xbc99e891	-0.018787654
109	0xbd528ed9	-0.05140576
110	0xbd133813	-0.03594215
111	0x3d28090f	0.041024264
112	0xbd03029f	-0.03198492
113	0x3d2f9029	0.04286209
114	0x3cb1b6b2	0.021693561
115	0x3bf50d74	0.0074784104
116	0x3ceb95c1	0.028757932
117	0xbc31ab17	-0.010844014
118	0x3da802a5	0.082036294
119	0xbd778c94	-0.0604368
120	0xbd92633c	-0.07147834
121	0xbcf5de5b	-0.030013254
122	0x3d9b1e14	0.07574096
123	0x3c922d9d	0.017844016
124	0x3d2c9fb3	0.04214449
125	0xbca62b20	-0.020284235
126	0xbd7f8b01	-0.062388424
127	0xbd7e5ddd	-0.062101234
128	0x3db01005	0.085968055
129	0xbd227e7a	-0.0396714
130	0x3d2a7b8b	0.041621726
131	0x3c98499b	0.018589785
132	0x3d552f27	0.05204692
133	0xbcfe55d2	-0.031046782
134	0xbc35aba7	-0.011088288
135	0xbda7b57b	-0.081889115
136	0xbdaf8852	-0.08570923
137	0xbda2c4c3	-0.079476856
138	0x3d4630db	0.048386436
139	0x3da56911	0.080766805
140	0x3b97f564	0.004637407
141	0x3d9c3d5e	0.07628892
142	0xbd8c263d	-0.06843231
143	0x3d8724af	0.06598794
144	0x3c74bd6e	0.014937742
145	0x3dae52e8	0.08511907
146	0xbd385849	-0.04500607
147	0xbd366d6c	-0.044537947
148	0x3c9231af	0.017845957
149	0xbda50b12	-0.08058752
150	0x3da8901d	0.082306124
151	0xbbb1e3b8	-0.0054287575
152	0x3d97e31b	0.07416364
153	0x3b60f31d	0.0034324594
154	0xbdae7e29	-0.08520157
155	0xbcfeb2d3	-0.03109113
156	0xbd0d9d0c	-0.0345736
157	0x3d0fb93e	0.03508877
158	0xbd85de65	-0.06536559
159	0xbb2c4eee	-0.0026292163
160	0xbdaa8c9f	-0.083276026
161	0x3cb02ccb	0.021505734
162	0x3cf0e761	0.029407205
163	0xb877f87f	-5.912082e-05
164	0xbda811dd	-0.08206532
165	0xbc9eafaf	-0.019370882
166	0x3d3e6c5f	0.04649007
167	0xbbc884b0	-0.006119333
168	0xbc5b02fd	-0.013367412
169	0x3d1e39fa	0.03862951
170	0x3d097f29	0.033568535
171	0x3d73967f	0.059469696
172	0xbd857664	-0.06516722
173	0x3d69cf55	0.057082493
174	0xbd9f0573	-0.07764711
175	0x3d3379ab	0.043817203
176	0x3c903124	0.017601557
177	0xbda05d7d	-0.078303315
178	0x3c43aed0	0.011943534
179	0x3d79212f	0.060822662
180	0xbd6f5afb	-0.058436375
181	0xbce2b939	-0.027676212
182	0xbd41da37	-0.047327247
183	0x3d72109d	0.059097875
184	0xbb539273	-0.0032283335
185	0x39c81268	0.00038160686
186	0x3d639b38	0.05556795
187	0xbb8827b0	-0.0041551217
188	0xbd3b5a04	-0.045740142
189	0x3d5526e6	0.05203905
190	0x3cf8eac9	0.030385392
191	0xbc839f9a	-0.016067315
192	0x3cf9860f	0.030459432
193	0xbb5843fe	-0.003299951
194	0xbce5e7e7	-0.028064681
195	0x3acbffb0	0.0015563872
196	0xbd4966bd	-0.049170244
197	0xbd97b39d	-0.074073054
198	0xbcdf8c9a	-0.027288724
199	0x3d973e22	0.07384898
200	0xbd691ed7	-0.056914177
201	0xbda1ba1a	-0.07896824
202	0xbd9993f0	-0.0749892
203	0x3d424324	0.04742731
204	0xbda9ec9c	-0.08297083
205	0xbc19bb15	-0.009382983
206	0x3d4c8137	0.049927916
207	0x3d2957e3	0.04134358
208	0xbcc23b0b	-0.023709795
209	0x3d89584e	0.06706296
210	0x398db53c	0.00027028646
211	0x3d8855c3	0.06656983
212	0xbc393ede	-0.011306493
213	0x3d9d42b8	0.07678741
214	0xbd48f854	-0.04906495
215	0xbd8ab7ce	-0.06773339
216	0x3d9de06a	0.07708819
217	0x3daed96b	0.08537563
218	0x3da58bdd	0.080833174
219	0xbda831bd	-0.08212612
220	0xbd0e1ddf	-0.034696456
221	0xbd1a05c5	-0.03760316
222	0x3d15fbda	0.036617137
223	0xbd23d8fb	-0.04000185
224	0x3a60380c	0.00085532735
225	0x3c983719	0.01858096
226	0xbad2b9de	-0.0016077121
227	0xbdb29a2f	-0.087208144
228	0x3cdf7019	0.027275132
229	0x3d0b2a5e	0.03397595
230	0xbd9b83ff	-0.07593536
231	0xbd0161e8	-0.03158751
232	0x3d8995b7	0.06718009
233	0xbc96889c	-0.018375687
234	0xbd134cdb	-0.035961967
235	0x3ca434e1	0.020044746
236	0x3dad44e4	0.084604055
237	0x3d83f2cf	0.064427964
238	0x3d2a120b	0.041521113
239	0x3ae2e0a8	0.0017309384
240	0x3d97186d	0.07377706
241	0x3da375ff	0.0798149
242	0xbda03c55	-0.078240074
243	0x3db3beee	0.08776651
244	0x3ce781ab	0.028260073
245	0x3caa3b9c	0.020780377
246	0x3dac1ef8	0.08404344
247	0xbd343e4d	-0.044004727
248	0xbd81b827	-0.063339524
249	0xbda47db3	-0.08031788
250	0xbd381714	-0.044943884
251	0xbd94fcd6	-0.07274787
252	0xbbe9235b	-0.0071148104
253	0x3da21fc4	0.07916215
254	0x3d067ff5	0.032836873
255	0x3d22bb67	0.039729502

actor.linear3.bias f4 [128]
0	0xbd9a94a5	-0.07547883
1	0x3da289f5	0.079364695
2	0x3d773005	0.06034853
3	0xbc65b67f	-0.014020561
4	0x3ba5d10c	0.0050603207
5	0x3d383c33	0.044979285
6	0x3d8dffa2	0.06933524
7	0x3d83d528	0.06437141
8	0xbd87139c	-0.06595537
9	0x3bbbc017	0.005729686
10	0x3cf83021	0.030296387
11	0xbd6a52da	-0.05720792
12	0x3d9bc8cb	0.076066576
13	0x3a14cdf3	0.0005676441
14	0xbcfff883	-0.03124643
15	0x3cf4cd54	0.029883064
16	0xbd235367	-0.03987446
17	0xbb5b5a55	-0.003347059
18	0xbc6d0f14	-0.014468927
19	0xbcd6dfe4	-0.026229806
20	0xbc8a6e0d	-0.01689818
21	0xbd8c4874	-0.06849757
22	0x3ca46732	0.020068739
23	0x3c2ca105	0.010536437
24	0x3d28ed9f	0.041242238
25	0x3da6a04b	0.08136042
26	0xbc2006e3	-0.009767267
27	0x3d540d8e	0.05177074
28	0xbd68b3d2	-0.056812115
29	0xbc3aef09	-0.0114095295
30	0x3da105d8	0.07862443
31	0x3d97e9e8	0.07417661
32	0xbc2e7c13	-0.010649699
33	0xbd8a99a8	-0.06767589
34	0xbc94e98b	-0.018177768
35	0xbd743b3b	-0.0596268
36	0xbd8cf0b0	-0.06881845
37	0xbcb39e3a	-0.021926034
38	0x3d0cfe49	0.034422193
39	0xbd977255	-0.07394854
40	0x3d90924d	0.07059155
41	0x3d5979b3	0.053094577
42	0xbcd732c7	-0.02626933
43	0x3c144f35	0.009052088
44	0xbd4ebdc9	-0.050473962
45	0x3d602119	0.054719064
46	0xbd59f501	-0.05321217
47	0x3d2d6332	0.04233093
48	0x3d9105ea	0.07081206
49	0x3d838fd8	0.064239204
50	0x3b566086	0.003271134
51	0x3db36cc2	0.08760978
52	0x3db0d66c	0.08634648
53	0xbcd2a472	-0.02571318
54	0xbdaeca06	-0.08534627
55	0xbca48775	-0.020084122
56	0xbd098ac7	-0.033579614
57	0x3c5b2441	0.013375343
58	0xbd34c92f	-0.044137176
59	0x3d0fc561	0.035100345
60	0x3d551fc4	0.052032247
61	0xbda325ad	-0.079661705
62	0xbd4280fb	-0.047486287
63	0xbd508545	-0.050908346
64	0xbd5055ff	-0.050863262
65	0xbcf2dc19	-0.029645966
66	0x3bac329d	0.005255057
67	0xbd56bf4e	-0.052428536
68	0x3a995867	0.001169932
69	0x3d5c2f53	0.05375607
70	0x3d7661f7	0.06015202
71	0xbcbde31d	-0.023179585
72	0x3c91aa45	0.017781386
73	0xbd517720	-0.051138997
74	0x3d796cdc	0.060894832
75	0xbda8cb5a	-0.08241911
76	0xbd4057da	-0.04695878
77	0xbd8fa0b1	-0.07013071
78	0xbd094006	-0.033508323
79	0x3db1b687	0.086773925
80	0x3bfea8ee	0.007771603
81	0xbd71652b	-0.058934372
82	0x3c8daa0d	0.017293
83	0xbcb654ea	-0.022257287
84	0xbda78563	-0.081797384
85	0x3dae4acc	0.0851036
86	0xbd1476d1	-0.036246125
87	0xbd2b0aa6	-0.041758202
88	0xbd1c5e6f	-0.038175996
89	0x3c65461c	0.013993766
90	0xbc3bef54	-0.0114706345
91	0x3be3f489	0.006956641
92	0xbd19e8a1	-0.037575368
93	0x3d6fc343	0.058535825
94	0x3cc61054	0.024177708
95	0xbcad0ced	-0.021124328
96	0xbdb33d1b	-0.08751889
97	0x3d4a2505	0.04935171
98	0xbd77da13	-0.060510706
99	0x3c7a9453	0.015294152
100	0xbd85167e	-0.06498431
101	0x3d5e3384	0.054248348
102	0xbd9b155d	-0.07572434
103	0xbdb22def	-0.087001674
104	0x3d9796b3	0.074017905
105	0xbd833ac3	-0.06407692
106	0xbd58961a	-0.052877523
107	0x3d1357a8	0.035972267
108	0x3d9cc70d	0.076551534
109	0xbcf1d727	-0.029521538
110	0x3d15b3ed	0.036548544
111	0x3c598225	0.013275658
112	0x3d27307b	0.04081772
113	0x3c032af3	0.008005845
114	0x3c949de1	0.018141689
115	0xbcc7ede4	-0.024405427
116	0x3db39700	0.08769035
117	0xbd3e406e	-0.046448164
118	0xbd7d3a19	-0.061822984
119	0xbcae7e42	-0.021300439
120	0x3d76d1ab	0.06025855
121	0x3d82656c	0.06367001
122	0xbd6f0aa7	-0.05835977
123	0x3d21e007	0.03952029
124	0xbd2119d7	-0.039331283
125	0xbd45ac1f	-0.04825985
126	0xbd361136	-0.044450007
127	0xbda628b6	-0.08113234

actor.linear4.weight f4 [9, 128]
0	0x3d42dd93	0.04757459
1	0x3da50524	0.08057621
2	0xbd42f1b0	-0.047593772
3	0x3ce47bcf	0.027891068
4	0xbd925a19	-0.07146091
5	0x3bb7490d	0.005593425
6	0xbd9b157e	-0.07572459
7	0x3cd5a3d6	0.0260791
8	0x3db07776	0.08616535
9	0xbd3f7735	-0.046744544
10	0x3d984f21	0.07436968
11	0xbd852e0e	-0.06502925
12	0xbca785a0	-0.02044946
13	0xbd1f8676	-0.03894659
14	0x3d6bd26d	0.057573725
15	0xb9b3e334	-0.0003431082
16	0x3d3a3ab4	0.04546614
17	0xba911ac6	-0.0011070601
18	0x3d356671	0.04428715
19	0x3d3a64d9	0.045506332
20	0xbd1aae7b	-0.037764054
21	0xbd8ffeae	-0.07030998
22	0xbd6b57d2	-0.0574568
23	0xbcc72277	-0.024308426
24	0xbdb087b8	-0.08619636
25	0xbc3542d4	-0.011063296
26	0x3cddf215	0.027092973
27	0x3ceb22b7	0.028703077
28	0x3be37136	0.006940986
29	0xbc977a49	-0.018490927
30	0xbd3dd2de	-0.046343677
31	0x3da47e03	0.08031847
32	0xbd4adbb9	-0.04952595
33	0x3d7b1b08	0.061305076
34	0xbd035a3a	-0.03206847
35	0xbd806912	-0.062700406
36	0xbd85d71a	-0.06535168
37	0x3d386a7b	0.045023423
38	0xbdb48e05	-0.088161506
39	0x3b4b3aa1	0.0031010287
40	0x3d9fad6d	0.0779675
41	0x3d83a9f7	0.064289026
42	0xbd29c036	-0.041443072
43	0x3d0bcd89	0.03413156
44	0xbda3e461	-0.08002544
45	0x3b8054b8	0.0039163493
46	0xbd5f979e	-0.054587953
47	0xbccae8b4	-0.024769165
48	0x3c91201f	0.017715512
49	0xbd985c53	-0.074394844
50	0x3b2b5e29	0.0026148653
51	0x39575010	0.00020533823
52	0x3c91b56d	0.017786706
53	0x3c84271b	0.016131928
54	0xbb0a08cb	-0.002106237
55	0xbb1be844	-0.0023789564
56	0x3d47ae96	0.048750482
57	0x3d18463b	0.037176352
58	0xbc76276a	-0.0150240455
59	0x3db39222	0.08768107
60	0x3da4935b	0.08035918
61	0xbd0392d8	-0.032122463
62	0xbda1f71c	-0.079084605
63	0xbd7719cb	-0.060327332
64	0xbd8efdd8	-0.069820106
65	0x3af09f36	0.0018357995
66	0xbd02a1ed	-0.031892706
67	0x3daaf141	0.08346797
68	0xbb8feb74	-0.004392082
69	0xbca20f64	-0.01978273
70	0xbda7a4fe	-0.08185767
71	0x3d847f44	0.064695865
72	0xbd77c7f4	-0.060493425
73	0xbbad2e86	-0.005285087
74	0xbc12c0f1	-0.008957134
75	0xbbbcc0c0	-0.0057602823
76	0xbd85bdea	-0.06530364
77	0x3c8b5666	0.017008971
78	0x3d06d56b	0.032918375
79	0x3d50f793	0.051017355
80	0xbd56441c	-0.052311048
81	0xbd90ad1c	-0.07064268
82	0x39e2ee4d	0.00043283627
83	0xbc5c0770	-0.013429508
84	0x3ae08be9	0.001713154
85	0xbcef6387	-0.029222263
86	0x3d86d2d1	0.06583179
87	0xbd6581d3	-0.056032013
88	0x3da0e65c	0.078564376
89	0x3c92f201	0.017937662
90	0x3d1742a3	0.036928784
91	0xbd338f73	-0.043837976
92	0x3ca667c2	0.020313147
93	0x3cf6802d	0.030090416
94	0x3d50d1b6	0.050981246
95	0xbc7dfdc8	-0.015502401
96	0x3d5be937	0.053689208
97	0x3cc8f516	0.024530929
98	0xbd9d7416	-0.07688157
99	0x3d81b348	0.06333023
100	0xbcf8a98d	-0.030354286
101	0xbcf8f4b5	-0.030390123
102	0xbc6e62ac	-0.014549892
103	0x3d701f5d	0.05862366
104	0xbc3442cf	-0.011002257
105	0xbd75125c	-0.059831962
106	0x3dab8fbb	0.08377024
107	0xbd2e894e	-0.042611413
108	0x3dad4b3a	0.08461614
109	0x3d952da2	0.072840944
110	0x3ce49c8d	0.02790668
111	0xbcdae3e4	-0.026719995
112	0x3d6be713	0.057593416
113	0xbc626480	-0.013817906
114	0x3d3eb4b6	0.046559058
115	0x3cd9b732	0.026576612
116	0x3d08231e	0.033236615
117	0x3d9c7537	0.076395445
118	0xbd4f1d47	-0.05056503
119	0x3d54f13c	0.05198787
120	0xbb676fca	-0.0035314434
121	0x3dadfb1b	0.0849516
122	0xbcf620bd	-0.030044908
123	0x3d95716d	0.07297025
124	0xbc9353d0	-0.0179843
125	0xbd5abd97	-0.053403463
126	0xbca126d8	-0.019671842
127	0xbd500427	-0.05078521
128	0x3cd79f25	0.026321003
129	0xbd078d73	-0.03309388
130	0x3d81eea3	0.063443445
131	0x3c7cf83d	0.015440044
132	0x3cff059f	0.03113061
133	0xbd2bcb3c	-0.041941866
134	0xbd267a68	-0.04064408
135	0x3cab0a1b	0.020878842
136	0xbd7d150e	-0.061787657
137	0x3d917948	0.07103211
138	0x3ceb20e2	0.028702203
139	0x3d2b5798	0.041831583
140	0xbd51d679	-0.051229928
141	0x3daa43a9	0.083136864
142	0x3cd66541	0.026171328
143	0xbce369b7	-0.02776037
144	0x3db3ce5b	0.087795936
145	0xbcee04b8	-0.029054984
146	0x3d9f1b1f	0.07768845
147	0xbd06fc44	-0.032955423
148	0x3d6232d7	0.055224266
149	0x3d0c8627	0.034307625
150	0xbda81384	-0.08206847
151	0xbdaa3621	-0.083111055
152	0x3c05067c	0.008119222
153	0xbd40f4bc	-0.047108397
154	0x3db2a119	0.08722133
155	0xbda3e192	-0.080020085
156	0xbbdfcb06	-0.006829622
157	0xbbd7fc39	-0.0065913466
158	0xbd9bf6d1	-0.07615436
159	0x3c182e66	0.009288406
160	0x3d9a907f	0.07547092
161	0xbc3f9ac2	-0.011694612
162	0xbd85ea27	-0.06538802
163	0xbd8961c8	-0.067081034
164	0xbca36042	-0.01994336
165	0x3c2da399	0.010598087
166	0x3caf36bf	0.02138841
167	0x3c970ec9	0.018439667
168	0xbda49b0f	-0.080373876
169	0xbda784a6	-0.081795976
170	0x3d944f53	0.072416924
171	0xbbadba05	-0.0053017163
172	0x3d3f0b4e	0.04664164
173	0x3d1722cb	0.036898416
174	0xbd2b54e7	-0.041829016
175	0x3d72a0b7	0.0592353
176	0x3d559643	0.052145254
177	0xbdb1ac29	-0.08675415
178	0xbc9b2a8b	-0.018941185
179	0xbd82b139	-0.06381459
180	0xbd981da4	-0.074275285
181	0xbd901824	-0.070358545
182	0x3d5b2d47	0.053509977
183	0xbd9c72e0	-0.07639098
184	0xbd9347ff	-0.071914665
185	0x3cc4636c	0.02397319
186	0xbc905709	-0.017619627
187	0xbd8d1425	-0.06888608
188	0x3d633a31	0.055475418
189	0x3c76101d	0.01501849
190	0x3aad03c6	0.0013199977
191	0x3da94a62	0.082661405
192	0x3d11cc6e	0.03559535
193	0xbcd2c79b	-0.025729945
194	0xbd3be9ad	-0.045877147
195	0x3d475024	0.048660412
196	0xbc9cc64c	-0.019137524
197	0x3cc105f8	0.023562416
198	0xbd6e49b3	-0.058175754
199	0x3d80cdc4	0.06289247
200	0x3d795bef	0.06087869
201	0x3d05c4ed	0.032658506
202	0x3d90c40b	0.07068642
203	0x3c6957cd	0.014242125
204	0xbcb5acee	-0.022177186
205	0xbc8f847f	-0.017519234
206	0x3d7e5714	0.062094763
207	0x3c95032c	0.018189989
208	0xbd3e4e74	-0.046461537
209	0x3d6f09eb	0.058359068
210	0x3d8d7c34	0.069084555
211	0xbda9a370	-0.08283126
212	0x3d827293	0.063695095
213	0x3c75e449	0.015008041
214	0x3b3948ea	0.002827222
215	0xbc560457	-0.013062558
216	0xbcc1c9c0	-0.023655772
217	0xbda226c4	-0.0791755
218	0xbd9585ae	-0.07300888
219	0x3d7366cb	0.059424203
220	0xba14b6b8	-0.0005672979
221	0xbc00c00e	-0.007858289
222	0x3da21c9d	0.07915614
223	0x3d968b27	0.0735076
224	0xbd89c56a	-0.06727107
225	0xbda1c70c	-0.07899293
226	0x3d46a2c4	0.04849507
227	0xbc4d7733	-0.012540626
228	0x3d8d48fb	0.068986855
229	0xbd21e0b7	-0.039520945
230	0x3db16da9	0.08663494
231	0x3d97d232	0.074131384
232	0xbcf8493b	-0.030308357
233	0x3da1c50a	0.0789891
234	0x3d92780d	0.07151804
235	0xbcccaff3	-0.024986243
236	0x3d9c1991	0.07622064
237	0xbc3c1ac3	-0.01148099
238	0xbd85da94	-0.06535831
239	0x3d876ee1	0.06612945
240	0x3d8549d5	0.06508223
241	0xbc76c939	-0.015062624
242	0x3dacd3af	0.08438813
243	0x3d8d5754	0.06901422
244	0x3c9f23a0	0.019426167
245	0x3aab5475	0.0013071435
246	0xbdab5ad1	-0.08366931
247	0x3da1b6e5	0.078962125
248	0x3d914edd	0.0709512
249	0xbd654844	-0.05597712
250	0xbcc1398b	-0.023587009
251	0x3c6c6abc	0.014429744
252	0x3d90d230	0.0707134
253	0xbcb71e1c	-0.022353224
254	0xbd0d5029	-0.034500275
255	0xbd364205	-0.044496555

actor.linear4.bias f4 [9]
0	0xbd84c03a	-0.06481977
1	0xbd163471	-0.036671106
2	0x3d406a85	0.046976585
3	0x3c6928ff	0.014230966
4	0xbd417ca4	-0.047238007
5	0xbd2ed753	-0.042685818
6	0x3d94f3b5	0.07273046
7	0x3d05ae13	0.032636713
8	0xbc8275a1	-0.01592523

critic.linear1.weight f4 [128, 120]
0	0xbba0d556	-0.004908244
1	0x3b61138d	0.0034343929
2	0xbd6512b8	-0.055926055
3	0xbd8d5ec1	-0.069028385
4	0x3d9372aa	0.07199605
5	0x3d1b42f2	0.03790564
6	0x3c3df298	0.011593483
7	0xbd9d272f	-0.07673489
8	0xbd19d4ca	-0.037556447
9	0xbb75d09e	-0.0037508379
10	0xbd94138f	-0.07230293
11	0xbd55bdfa	-0.05218313
12	0x3cc687c3	0.024234658
13	0x3d3d17fa	0.046165444
14	0xbd81ad93	-0.06331935
15	0xbcfff286	-0.031243574
16	0xbd9fd4e7	-0.0780428
17	0x3b05e19b	0.002042866
18	0xbd9802ad	-0.07422385
19	0x3b2c5e39	0.0026301278
20	0xbd9b76f8	-0.07591051
21	0xbcd94aca	-0.02652492
22	0x3d8eebfc	0.06978604
23	0xbd98b192	-0.07455744
24	0xbd8be782	-0.06831266
25	0xbcaacde2	-0.020850126
26	0x3d52976d	0.051413942
27	0x3db69978	0.089159906
28	0xbdb674fa	-0.0890903
29	0x3d35f954	0.04442723
30	0xbcbc3fbd	-0.022979612
31	0xbd986195	-0.07440487
32	0x3c7071da	0.014675582
33	0xbd4fba8c	-0.050715014
34	0x3d6a3bf3	0.05718608
35	0xbd7ab8a5	-0.061211247
36	0x3c697263	0.014248463
37	0x3d3480f9	0.04406831
38	0xbc96de0b	-0.018416425
39	0x3d719dd8	0.058988422
40	0xbcb90875	-0.02258704
41	0x3d0d7b7e	0.0345416
42	0xbda8d6e8	-0.08244115
43	0x3c78d281	0.015186907
44	0x3d9ab9ef	0.07554995
45	0x3c615132	0.013752269
46	0x3d19b14a	0.03752259
47	0xbd30f625	-0.04320349
48	0xbc86d4cc	-0.016458891
49	0x3d4d7993	0.05016477
50	0xbc87adc6	-0.016562354
51	0x3d799899	0.060936544
52	0xbc9d3316	-0.019189399
53	0xbd0bf4c4	-0.034168974
54	0xbc3fa4ef	-0.011697038
55	0x3bd3e22e	0.0064661717
56	0xbc5ff653	-0.013669568
57	0xbdb9cc6b	-0.09072193
58	0xbcd9d704	-0.026591785
59	0xbc90fb57	-0.017697973
60	0xbd5526b1	-0.052038852
61	0x3d22e3d3	0.03976805
62	0xbc4a4de7	-0.012347675
63	0x3c97eb06	0.018544685
64	0x3daeaf16	0.08529489
65	0x3bb2d9e2	0.0054581026
66	0xbd80528a	-0.06265743
67	0x3d629a8b	0.055323165
68	0x3bf7db13	0.0075639575
69	0xbd6971e9	-0.0569934
70	0xbd3ac31e	-0.045596235
71	0xbc5c2d1c	-0.013438489
72	0x3d48896f	0.048959192
73	0xbd4acd69	-0.0495123
74	0xbd2e3b18	-0.042536825
75	0x3d2f3f98	0.042785257
76	0x3d91fe72	0.0712861
77	0xbcc1e71e	-0.023669776
78	0x3d98a661	0.07453609
79	0xbd6374d0	-0.055531323
80	0x3d86eae1	0.06587768
81	0xbdb865fd	-0.09003828
82	0x3952818a	0.00020075418
83	0xbb30c39b	-0.0026972059
84	0xbd3be7b0	-0.04587525
85	0xbd809332	-0.06278075
86	0xbc80d290	-0.015725404
87	0x3d46578a	0.048423328
88	0x3c1513b3	0.009098935
89	0xbce32de2	-0.02773184
90	0x3db6153f	0.08890771
91	0x3cc24c99	0.023718165
92	0x3d17ab5c	0.037028655
93	0x3db01d91	0.08599389
94	0x3dac2b7a	0.0840673
95	0x3d7165e8	0.058935076
96	0x3db7bd55	0.08971659
97	0xbc5b1d6b	-0.013373713
98	0x3d9f1719	0.077680774
99	0xbd404210	-0.046938002
100	0x3d9b4fc4	0.075835735
101	0xbdb2e9d7	-0.08736008
102	0xbd067ee5	-0.03283586
103	0x3d38a10a	0.045075454
104	0xbc5fddc6	-0.013663715
105	0xbc9dca9d	-0.019261653
106	0xbdb7b763	-0.08970525
107	0xbb68aecb	-0.0035504575
108	0x3c72ae8a	0.014812121
109	0xbd61d2fb	-0.055132847
110	0xbd02784b	-0.031853
111	0xbd816581	-0.063181885
112	0x3ca4f443	0.020136004
113	0xbb524403	-0.0032083995
114	0x3c963a22	0.018338267
115	0xbd8896fb	-0.06669422
116	0x3cacfc75	0.021116475
117	0xba22c740	-0.00062095
118	0xbd0aa54b	-0.033849042
119	0x3c120d56	0.008914312
120	0xbd8853fa	-0.06656642
121	0x3d81fe2b	0.06347307
122	0xbd9e7a49	-0.07738168
123	0xbceb94aa	-0.028757412
124	0xbc7db7b0	-0.015485689
125	0xbd3eb2fe	-0.04655742
126	0xbc74f97d	-0.014952061
127	0xbd87c0d5	-0.06628577
128	0xbd1f64f2	-0.03891463
129	0xbd84b902	-0.064806
130	0x3ce173f0	0.027521104
131	0xbd534735	-0.05158158
132	0x3d63d2c8	0.05562094
133	0x3d929474	0.071572214
134	0xbd0a3937	-0.03374597
135	0x3c2b2785	0.010446434
136	0x3daf16ff	0.08549308
137	0xbd256644	-0.04038073
138	0x3c907f5c	0.017638855
139	0x3da4170f	0.080122106
140	0xbd0fc1b9	-0.035096858
141	0x3d8108e0	0.06300521
142	0x3d212b2e	0.03934782
143	0x3befca7d	0.0073178397
144	0x3d9338c3	0.07188561
145	0x3d4ca175	0.049958665
146	0x3da5b65f	0.08091425
147	0xbd6ef7fb	-0.05834196
148	0xba8f41c7	-0.0010929637
149	0x3d83b352	0.06430687
150	0x3c2fdf08	0.010734327
151	0x3da621b9	0.08111901
152	0xbd29e075	-0.041473825
153	0x3cdf15d3	0.027232086
154	0x3db9743c	0.09055373
155	0xbd044ed6	-0.032301746
156	0x3c59b5cc	0.013287973
157	0xbdb2b4f9	-0.08725924
158	0xbcf72136	-0.030167203
159	0x3d942dcd	0.07235298
160	0x3b68aeca	0.0035504573
161	0xbce7fecb	-0.028319737
162	0x3d70de39	0.058805678
163	0xbdb831dc	-0.08993885
164	0xbd98d332	-0.07462157
165	0xbaa79736	-0.0012786153
166	0x3d407db7	0.04699489
167	0x3d069463	0.032856356
168	0xbd6f248d	-0.058384467
169	0xbd15feb1	-0.036619846
170	0xbd4d7dc2	-0.05016876
171	0x3d4cfb45	0.050044317
172	0x3d1e29a1	0.03861392
173	0x3d14ba12	0.036310263
174	0x39daf1db	0.00041760397
175	0x3d05d62c	0.032674953
176	0x3d64b5a1	0.055837277
177	0xbd694b1c	-0.056956396
178	0x3d94aedc	0.07259914
179	0xbd9019bc	-0.070361584
180	0x3c6bf8cf	0.014402582
181	0xbd94625d	-0.07245324
182	0xbced37df	-0.028957305
183	0x3d4f7bf2	0.050655313
184	0x3cdf4090	0.027252465
185	0xbdb7692a	-0.08955605
186	0xbd3e1fa3	-0.04641689
187	0x3ce6dc74	0.028181292
188	0x3d98f4f0	0.07468593
189	0xbc48ffc8	-0.012268014
190	0xbd3835ea	-0.04497329
191	0x3dbb1fea	0.091369465
192	0x3d16b635	0.03679486
193	0x3d380360	0.044925094
194	0xbd728c46	-0.059215806
195	0x3da95858	0.08268803
196	0x3db4d248	0.088291705
197	0x3d73fbc1	0.059566263
198	0x3da30add	0.079610564
199	0x3d7c0cff	0.06153583
200	0x3dae60a5	0.08514527
201	0xbd832126	-0.06402807
202	0xbd251f68	-0.040313154
203	0xbd2f6f62	-0.042830832
204	0x3d56f1a6	0.052476548
205	0xbd8adfe4	-0.06780985
206	0x3c67089f	0.0141011765
207	0xbdabdbd8	-0.08391541
208	0xbd8d2ab0	-0.068929076
209	0x3d3ad5f5	0.0456142
210	0x3d00e68a	0.03146986
211	0x3d1f5c4c	0.03890638
212	0x3c4cac91	0.012492315
213	0x3d429af8	0.04751107
214	0x3c8dbdae	0.01730236
215	0xbdb44867	-0.08802872
216	0x3d2638e7	0.04058161
217	0xbcee10e3	-0.029060787
218	0xbd2fee09	-0.042951617
219	0x3daa4d6d	0.08315549
220	0x3c8f5e12	0.01750091
221	0x3d249f92	0.04019124
222	0x3d6ff42a	0.058582462
223	0xbd0f5f94	-0.03500326
224	0xbd2014b3	-0.03908224
225	0x3ca846f2	0.020541642
226	0x3d50bcae	0.05096119
227	0xbd71a503	-0.058995258
228	0xbb4b7b78	-0.0031048935
229	0x3d0e41bf	0.03473067
230	0x3d09d2e2	0.03364838
231	0xbdac10e7	-0.08401661
232	0x3cc538c4	0.02407492
233	0xbd1a0454	-0.037601784
234	0x3b2d0d08	0.0026405472
235	0x3d433b38	0.047663897
236	0x3bdadbb3	0.006679022
237	0xbdb01ab7	-0.085988455
238	0xbdb007e4	-0.08595255
239	0xbb6ad30d	-0.0035831362
240	0x3d052f62	0.03251589
241	0xbd841846	-0.06449942
242	0x3c511d9d	0.012763408
243	0xbd5dca37	-0.054147925
244	0xbd057f39	-0.032592032
245	0x3d9bfef9	0.076169915
246	0x3dab27f4	0.0835723
247	0x3cf9ec71	0.030508252
248	0x3d355101	0.044266704
249	0x3d491cb4	0.04909964
250	0x3d6de720	0.058081746
251	0xbcb6d461	-0.022318067
252	0xbb0d3f99	-0.00215528
253	0xbd02d843	-0.031944524
254	0xbcf04a96	-0.02933244
255	0x3da45d2c	0.080255836

critic.linear1.bias f4 [128]
0	0x3bdf5d2b	0.0068165264
1	0x3d1827f5	0.03714748
2	0xbcfd8503	-0.030947214
3	0x3db407f9	0.08790583
4	0x3da1d78b	0.0790244
5	0xbd9620eb	-0.07330497
6	0xbda18c2d	-0.078880645
7	0x3cb3cc8b	0.02194812
8	0xbd11618c	-0.03549342
9	0x3da503bd	0.08057354
10	0xbc4835b9	-0.01221984
11	0x3d34804c	0.044067666
12	0xbd84e18a	-0.06488331
13	0x3cc2423f	0.02371323
14	0xbda31a57	-0.07964008
15	0x3cebd9dc	0.028790407
16	0x3da2a84f	0.079422586
17	0xbd034860	-0.032051444
18	0xbdaa3bcf	-0.08312189
19	0xbc81970c	-0.015819095
20	0xbdb2b7eb	-0.08726486
21	0xbd166c10	-0.03672415
22	0x3cb8750a	0.022516746
23	0x3cee160c	0.029063247
24	0x3da53d3a	0.08068319
25	0x3d8e6819	0.06953449
26	0x3da83cea	0.082147434
27	0x3d5b8726	0.053595684
28	0xbdadd1ac	-0.08487257
29	0x3da5adff	0.08089828
30	0x3d56bfe9	0.052429114
31	0xbc151c08	-0.009100921
32	0x3d4313f4	0.04762645
33	0x3d963bf8	0.07335657
34	0xbcc26c40	-0.023733258
35	0x3da454cb	0.080239855
36	0xbd6dfcd4	-0.058102444
37	0x3d7395da	0.05946908
38	0x3d8f35c0	0.06992674
39	0xbd8141ce	-0.063113794
40	0xbd3c2c51	-0.0459407
41	0xbd899787	-0.06718355
42	0x3c377d50	0.01119931
43	0xbd8f09be	-0.0698428
44	0xbc4a8ced	-0.012362701
45	0x3d8662cc	0.06561813
46	0x3d2c8878	0.042122334
47	0xbd0a027f	-0.033693787
48	0x3c08afd6	0.008342704
49	0xbd9cf965	-0.07664756
50	0xbd94fb37	-0.07274478
51	0x3d20e6d1	0.039282624
52	0x3db231a8	0.087008774
53	0x3c829687	0.015940918
54	0xbdb762a1	-0.08954359
55	0x3c7b9277	0.015354744
56	0xbd679527	-0.056538727
57	0x3d8b798a	0.06810291
58	0x3ce74a95	0.028233806
59	0x3d41b79b	0.04729424
60	0x3d841da9	0.0645097
61	0x3af32ac2	0.0018552172
62	0xbd90f6a0	-0.0707829
63	0x3db91dd2	0.09038891
64	0x3d0c9c40	0.0343287
65	0xbd1ed9d9	-0.038781974
66	0xbd649d53	-0.0558141
67	0x3c609d29	0.013709345
68	0x3dabc659	0.08387441
69	0xbda2791a	-0.079332545
70	0x3c93776b	0.018001279
71	0x3ad24268	0.0016041519
72	0xbd8475d0	-0.064677835
73	0xbd050f0e	-0.03248506
74	0x3b34f43d	0.0027611398
75	0xbbfac018	-0.007652294
76	0xbb7976c0	-0.0038065165
77	0xbd55f16f	-0.052232202
78	0x3c945fa1	0.018112006
79	0x3c82ff0d	0.015990758
80	0xbd62435d	-0.055240024
81	0xbd746be9	-0.059673224
82	0x3daade4c	0.08343181
83	0xbdb655bf	-0.089030735
84	0x3ca19b16	0.019727271
85	0x3d6d0d1f	0.05787384
86	0xbc582878	-0.013193242
87	0xbd9d5e9c	-0.07684061
88	0xbd67af18	-0.056563467
89	0x3d15ee76	0.036604367
90	0xbd476f1c	-0.048689947
91	0x3d214192	0.039369173
92	0xbd9a81a6	-0.0754426
93	0xbcae0118	-0.021240756
94	0xbda69a13	-0.08134856
95	0x3d5913b5	0.05299731
96	0x3da6f1fa	0.08151622
97	0xbd000bda	-0.031261303
98	0x3d149199	0.036271665
99	0x3a950ccd	0.0011371613
100	0xbd9e6e00	-0.077358246
101	0x3c8685b8	0.016421184
102	0xbdb75818	-0.089523494
103	0xbd255887	-0.04036763
104	0xbd9375d1	-0.07200206
105	0xbc8bda64	-0.01707191
106	0xbd377c24	-0.044796124
107	0xbc51867c	-0.012788411
108	0xbd590a77	-0.052988496
109	0xbd54d11f	-0.051957246
110	0x3d53fa21	0.051752213
111	0xbd8d41bb	-0.06897303
112	0x3c81e932	0.015858267
113	0xbdb115be	-0.08646725
114	0x3d9ec75b	0.07752868
115	0x3d8b48ce	0.06800996
116	0xbd175bba	-0.03695271
117	0x3d7351db	0.059404235
118	0xbd7fdbc8	-0.06246546
119	0x3aae01a7	0.0013275639
120	0xbcb36ac7	-0.021901501
121	0xbd8e7de1	-0.06957603
122	0x3d84ce73	0.064846896
123	0xbd86f22a	-0.06589158
124	0x3cc80e07	0.024420751
125	0x3b814b93	0.0039457767
126	0x3b93eed8	0.0045145564
127	0x3bc03ec3	0.005866857
