landing_ckpt/ckpt_00000200.pt (torch, 401527 bytes, 15 tensors)

actor.linear1.weight f4 [128, 120]
0	0xbd1d2982	-0.038369663
1	0xbd836d20	-0.06417298
2	0xbd95a01d	-0.0730593
3	0xbca90259	-0.020631002
4	0x3d08eb8c	0.03342776
5	0x3ce7e122	0.028305594
6	0x3bfbfa6b	0.0076897643
7	0xbd0142d0	-0.031557858
8	0x3d164f29	0.036696587
9	0xba127c8a	-0.0005588016
10	0x3d00d133	0.031449508
11	0x3d1dbfcb	0.038512986
12	0x3d816d63	0.06319692
13	0xbdb4c0cc	-0.088258356
14	0xbd92a6d4	-0.07160726
15	0xbd51e779	-0.05124614
16	0xbd0bae4a	-0.034101762
17	0x3d77afea	0.0604705
18	0xbb834bc1	-0.0040068333
19	0xbd924006	-0.07141118
20	0x3c6a488a	0.014299521
21	0x3d56dacc	0.052454755
22	0xbd3c8c0d	-0.046032
23	0x3d443bba	0.047908522
24	0xbd90a5d8	-0.07062882
25	0xbd8ed009	-0.06973273
26	0x3cfafd31	0.03063831
27	0x3d13964b	0.036032002
28	0x3d90be7a	0.070675805
29	0xbcceb2b2	-0.025231693
30	0x3d80a396	0.062812015
31	0x3da1fe6a	0.07909854
32	0x3d24120f	0.040056285
33	0xbd9b1d4a	-0.07573946
34	0x3d6ac1ba	0.05731366
35	0xbd14b93d	-0.03630947
36	0xbcc04898	-0.023472115
37	0xbd22b538	-0.039723605
38	0x3d885a54	0.06657854
39	0x3d4362cc	0.047701642
40	0x3d841e16	0.06451051
41	0x3c3b5977	0.011434904
42	0xbc2038a1	-0.009779126
43	0xbd03cf64	-0.032180205
44	0x3d1de987	0.038552787
45	0x3c8cf0db	0.017204693
46	0x3cb2c3bb	0.021821847
47	0x3d9f8585	0.07789139
48	0xbba09b2d	-0.004901311
49	0x3c533113	0.012890118
50	0x3d802c79	0.062584825
51	0x3d13ccc5	0.036083955
52	0x3cde46b0	0.027133316
53	0xbc129401	-0.00894642
54	0x3da9238e	0.08258735
55	0xbdb6584b	-0.08903559
56	0xbda6d398	-0.08145827
57	0xbdad299d	-0.08455203
58	0xbcb5e182	-0.022202257
59	0x3d398131	0.045289222
60	0x3d1fbcb6	0.03899833
61	0x3d8b11f8	0.06790537
62	0xbb8930fd	-0.004186748
63	0x3d4331b4	0.047654822
64	0xbcc39670	-0.023875445
65	0x3db8393a	0.0899529
66	0x3d24101b	0.040054422
67	0xbd9559a1	-0.07292486
68	0x3ccfb7a2	0.025356118
69	0xbd049b4b	-0.03237466
70	0x3daa9c87	0.083306365
71	0xba1846b1	-0.00058088737
72	0x3d4ae84a	0.049537934
73	0xbd063aad	-0.0327708
74	0x3c790acd	0.015200329
75	0xbd93f15d	-0.07223771
76	0x3d803d0e	0.06261645
77	0x3d713c6e	0.05889552
78	0x3c7d0734	0.015443612
79	0xbd2c2d90	-0.04203564
80	0xbc9dad30	-0.019247621
81	0x3dba1e92	0.09087862
82	0xbcbd8da2	-0.023138825
83	0x3d8e3fe9	0.06945784
84	0xbd767657	-0.06017145
85	0x38949d56	7.086496e-05
86	0x3d4532be	0.048144095
87	0xbd8dc005	-0.069213904
88	0x3dba75dc	0.09104511
89	0xbc3bb496	-0.011456629
90	0x3da7e3d9	0.08197755
91	0x3d67281f	0.056434747
92	0x3b80996a	0.0039245384
93	0xbd5a32de	-0.053271167
94	0xbc92b81f	-0.017910061
95	0xb9fca0fb	-0.00048185125
96	0xbda76ba0	-0.08174825
97	0xba42b896	-0.0007428018
98	0xbda2950e	-0.07938586
99	0x3cc3c652	0.023898277
100	0x3cc37cc8	0.023863211
101	0xbd8542c5	-0.06506876
102	0x3d1a369e	0.037649743
103	0xbda19487	-0.078896575
104	0x3d20fc69	0.039303217
105	0xbc4225ed	-0.0118498625
106	0xbdb4b846	-0.0882421
107	0x3aa19d43	0.0012330193
108	0x3d79465e	0.060858123
109	0xbc2e8cdf	-0.0106537035
110	0xbd979413	-0.0740129
111	0xbd337428	-0.043811947
112	0x3d7f0840	0.062263727
113	0x3cc05a22	0.023480479
114	0x3d889962	0.066698804
115	0xbd7069c3	-0.058694612
116	0x3d5aba14	0.053400114
117	0x3cd1e7ca	0.025623221
118	0x3d9eb490	0.07749283
119	0x3cdd3975	0.027004937
120	0x3d9f52a0	0.07779431
121	0x3d3c0a51	0.045908276
122	0xbcffabf1	-0.031209918
123	0xbbae7713	-0.0053242533
124	0x3db2755f	0.08713793
125	0xbd800a32	-0.062519446
126	0x3d866213	0.06561675
127	0xbd6e674a	-0.058203973
128	0xbd851728	-0.06498557
129	0xbc61fa15	-0.013792534
130	0x3d6e921e	0.058244817
131	0x3ca3299b	0.0199173
132	0x3d9bffc1	0.076171406
133	0xbdb4703b	-0.08810469
134	0xbc9d6cc0	-0.019216895
135	0x3d818ba9	0.06325466
136	0x3b02f747	0.0019983815
137	0xbdad456b	-0.08460506
138	0x3cd25e9e	0.025679883
139	0x3d78dd5f	0.06075799
140	0x3cd3b30e	0.025842216
141	0xbcabb2ff	-0.020959375
142	0xbc73ac87	-0.014872677
143	0x3d9c3505	0.076273
144	0x3d5b2b62	0.05350817
145	0xbc8d9b65	-0.017286012
146	0x3d27d67b	0.04097603
147	0x3d8d724e	0.069065675
148	0xbd078334	-0.03308411
149	0x3b6f583a	0.0036521093
150	0xbd8f36f0	-0.069929
151	0x3dbbf220	0.09177041
152	0xbd047302	-0.032336242
153	0x3c830106	0.015991699
154	0x3b29ad4f	0.0025890653
155	0xbd8a5ec0	-0.067563534
156	0xbd02de48	-0.031950265
157	0xbd9976ed	-0.074933864
158	0xbd9e065d	-0.077160574
159	0x3c7bae25	0.0153613435
160	0xbd3f23a4	-0.04666485
161	0x3cd42b6e	0.025899615
162	0x3da91355	0.082556404
163	0xbd7b5b9a	-0.061366655
164	0x3c9ac00a	0.0188904
165	0x3db12b00	0.0865078
166	0x3cc65444	0.024210103
167	0x3d2372e3	0.039904486
168	0xbdb97975	-0.09056369
169	0xbd6d2d83	-0.05790473
170	0x3b502f75	0.0031766568
171	0xbcd51b8c	-0.026014112
172	0x3db19fa6	0.08673029
173	0xbd8ee107	-0.06976514
174	0x3d27ed6b	0.040997904
175	0xbd8fa4f1	-0.07013882
176	0xbda26c23	-0.07930782
177	0xbcf5e273	-0.030015206
178	0x3bd5e2f1	0.0065272977
179	0x3d5dd65b	0.054159503
180	0x3c5c420b	0.01344348
181	0xbd810cc6	-0.063012645
182	0x3d6789a9	0.056527767
183	0x3ad8d02a	0.001654153
184	0xbcac9de3	-0.02107138
185	0xbd9b6456	-0.07587497
186	0x3d284c95	0.04108866
187	0xbcd8b02e	-0.026451197
188	0xbdaf2cb7	-0.085534506
189	0xbc40bce1	-0.011763782
190	0xbca2653c	-0.019823663
191	0xbd4692ba	-0.048479773
192	0xbce92bcd	-0.028463269
193	0xbc874d8f	-0.016516475
194	0xbc98b183	-0.018639332
195	0xbd954160	-0.0728786
196	0x3b566a78	0.003271727
197	0x3c432f1a	0.011913085
198	0xbd706572	-0.058690496
199	0x3d0f9996	0.03505858
200	0x3d50c7b6	0.05097171
201	0xbcddd79c	-0.02708035
202	0xbd4e27a9	-0.05033079
203	0x3d91dea1	0.07122541
204	0x3db09b1a	0.08623333
205	0x3c62f652	0.013852673
206	0x3cd4ec8e	0.025991704
207	0xbda752a2	-0.08170058
208	0xbc3ed249	-0.011646816
209	0x3d079c40	0.033107996
210	0x3d1e308d	0.03862052
211	0xbd8b9534	-0.068155676
212	0xbdb4f399	-0.08835525
213	0xbd2823bd	-0.041049708
214	0x3da4399d	0.08018801
215	0x3d349695	0.04408892
216	0x3c625e0a	0.013816366
217	0xbdaa259c	-0.08307955
218	0x3c79b877	0.015241734
219	0x3da8be59	0.08239431
220	0xbda349b9	-0.07973046
221	0x3a864300	0.0010243356
222	0xbdb362cb	-0.08759078
223	0xbccec012	-0.02523807
224	0xbda01851	-0.07817138
225	0x3cb45b2e	0.022016134
226	0xbd785bbc	-0.06063436
227	0x3a3bd226	0.00071647984
228	0x3d4adf1e	0.049529187
229	0x3ccf8563	0.025332158
230	0xbd7d86e0	-0.061896205
231	0xbdb4f05e	-0.08834909
232	0x3d34a404	0.04410173
233	0x3bf3eb81	0.0074438457
234	0x3c2e6563	0.01064429
235	0x3d1aa623	0.037756097
236	0xbd87610c	-0.06610307
237	0xbd9fb1f2	-0.07797612
238	0xbd9057ac	-0.07047972
239	0xbd24a4f3	-0.04019637
240	0xbd1d7247	-0.03843906
241	0xbcb56a34	-0.022145368
242	0x3c356068	0.011070348
243	0x3c9172a1	0.017754855
244	0x3cd06f9c	0.025443844
245	0xbdaca5a8	-0.08430034
246	0xbda9a094	-0.08282581
247	0x3d07db1e	0.03316795
248	0xbd460196	-0.048341356
249	0xbd17d68b	-0.03706984
250	0x3cfb31d4	0.030663408
251	0xbbd1ffed	-0.0064086826
252	0x3c821966	0.015881252
253	0x3d8c696d	0.06856046
254	0xbd2704a7	-0.04077592
255	0x3d3fb4e8	0.046803385

actor.linear1.bias f4 [128]
0	0x3d3bab52	0.04581768
1	0x3db83db6	0.089961454
2	0xbce2ebe6	-0.027700376
3	0x3d9f1898	0.07768363
4	0x3d9000c9	0.070314
5	0x3d907831	0.07054175
6	0xbd47a719	-0.04874334
7	0x3d5d760e	0.054067664
8	0xbd375d57	-0.04476675
9	0x3d2f471f	0.042792436
10	0x3d5cb974	0.0538878
11	0xbbfc2c83	-0.007695736
12	0xbc4623bd	-0.012093482
13	0x3d5643c3	0.052310716
14	0xbc849e16	-0.016188662
15	0x3c87c433	0.016573047
16	0xbda3bcfd	-0.07995031
17	0xbdb7bfdf	-0.089721434
18	0x3d92b01e	0.07162498
19	0x3d17b0c2	0.037033804
20	0x3d9263c0	0.07147932
21	0x3d508ba9	0.05091444
22	0x3c94b5f8	0.018153176
23	0xbd98ca68	-0.07460481
24	0xbd57c222	-0.052675374
25	0x3bc7fc1f	0.006103053
26	0xbd941fe1	-0.07232643
27	0x3cf4fc21	0.02990538
28	0xbb8f6655	-0.0043762126
29	0x3c54eb36	0.012995532
30	0xbc5634c8	-0.0130741075
31	0xbc1d8cd2	-0.009616094
32	0xbcc0516b	-0.023476323
33	0x3d9c5886	0.07634072
34	0xbd84f7dc	-0.06492588
35	0x3d4ba51f	0.04971802
36	0x3a853ce1	0.0010165238
37	0x3cd995eb	0.026560744
38	0x3d96c891	0.07362474
39	0xbd983d19	-0.074335285
40	0x3d23a415	0.039951403
41	0x3d8bb8da	0.06822367
42	0x3bd554b3	0.006510341
43	0xbd0cc1f9	-0.034364674
44	0xbccb2c5b	-0.024801424
45	0xba736707	-0.00092850666
46	0x3d79b614	0.06096466
47	0xbce64489	-0.028108852
48	0xbd203c8a	-0.039120235
49	0x3d48e18f	0.049043234
50	0x3dae2ca6	0.0850461
51	0x3c6d5557	0.014485679
52	0x3d2ec924	0.04267229
53	0xbda4f6bf	-0.080548756
54	0x3d8d5465	0.069008626
55	0xbca1ab04	-0.019734867
56	0xbdab9059	-0.083771415
57	0xbd800bf7	-0.06252282
58	0x3d570d6c	0.052503034
59	0x3c86200d	0.016372705
60	0xbd9fc714	-0.07801643
61	0xbb8b7f48	-0.0042571165
62	0xbdb3340b	-0.08750161
63	0xbd6151ca	-0.05500964
64	0x3d2bdfc0	0.04196143
65	0xbb14c814	-0.0022702264
66	0xbc7dece4	-0.015498374
67	0x3d561af5	0.052271802
68	0xbd9cb3b3	-0.076514624
69	0xbd2ae6a6	-0.04172387
70	0xbdb7c045	-0.089722194
71	0xbcb85d20	-0.022505343
72	0xbd00728b	-0.031359237
73	0xbd0f57d0	-0.034995854
74	0xbd0b0a4e	-0.033945374
75	0x3cf442a5	0.029816935
76	0xbd56794c	-0.05236177
77	0xbd1aea3e	-0.037821047
78	0x3d3ed483	0.046589386
79	0x3c168183	0.009186151
80	0x3d0f7290	0.035021365
81	0xba06fbd7	-0.00051492214
82	0xbcb2a451	-0.021806868
83	0x3db366a5	0.08759812
84	0x3c1abc58	0.009444319
85	0x3da66a83	0.08125784
86	0x3d6bdc3b	0.057583075
87	0xbdac136f	-0.08402144
88	0x3d84d8fe	0.064867005
89	0xbcbfc5a5	-0.023409674
90	0x3c8b1cb7	0.016981466
91	0xbd4eea0c	-0.050516173
92	0xbda000de	-0.078126654
93	0x3d601da8	0.054715782
94	0xbc611afb	-0.013739343
95	0xbb3298be	-0.0027251686
96	0x3d35cfe6	0.04438772
97	0x3d4aff1b	0.049559694
98	0xbdb90d16	-0.09035699
99	0xbd2479fa	-0.04015539
100	0x3da84b48	0.08217484
101	0x3db11b25	0.086477555
102	0xbd2e34ff	-0.04253101
103	0xbcc1cbb3	-0.023656702
104	0xbda13d88	-0.07873064
105	0x3c9367e3	0.017993873
106	0x3d1d5718	0.038413137
107	0xbd91b48c	-0.07114515
108	0xbd7e2e6b	-0.062055986
109	0x3cb112bb	0.021615377
110	0xbc367a94	-0.011137623
111	0x3d04cbfa	0.03242109
112	0xbd814772	-0.06312455
113	0x3d04a3e8	0.032382876
114	0x3d9e6cc1	0.07735587
115	0xbd3f9933	-0.04677696
116	0xbc87221f	-0.016495762
117	0x3d0677cb	0.032829087
118	0xbd38ffe9	-0.04516593
119	0x3c795848	0.015218802
120	0xbd08b93b	-0.033379775
121	0xbd8142dc	-0.063115805
122	0x3d894ace	0.06703721
123	0xbd8df64c	-0.06931743
124	0x3be5f5fd	0.0070178495
125	0xbcb77f46	-0.022399556
126	0xbd9aa8e8	-0.075517476
127	0xbd3283f1	-0.04358286

actor.linear2.weight f4 [128, 128]
0	0xbd4fee82	-0.05076457
1	0x3d161c3f	0.03664803
2	0x3cd677c4	0.026180156
3	0x3d6b9848	0.057518274
4	0x3d721480	0.05910158
5	0xbc75ecd2	-0.015010076
6	0xbd26547d	-0.040607918
7	0xbc8a51cd	-0.016884709
8	0x3c6c053c	0.014405545
9	0x3c4be61d	0.012445
10	0xbd40115c	-0.046891555
11	0xbd04e73e	-0.032447092
12	0xbd820b4f	-0.06349813
13	0xbd7c9bf2	-0.06167216
14	0x3d64ed02	0.05589009
15	0x3da42e26	0.080166146
16	0x3b8c867f	0.004288494
17	0xbcf2a401	-0.029619219
18	0xbd1fdd28	-0.03902927
19	0x3d46dadf	0.048548575
20	0xbd2a8aac	-0.041636154
21	0xbdb50c11	-0.08840192
22	0x3daa28bd	0.083085515
23	0x3cc778e8	0.024349645
24	0x3d774d99	0.060376737
25	0xbd06beb3	-0.03289671
26	0x3dba4802	0.09095766
27	0xbd87aa9e	-0.066243395
28	0x3ca4e05c	0.020126514
29	0xbcd73bec	-0.02627369
30	0x3dacaa63	0.08430936
31	0x3c8f8fbc	0.017524593
32	0x3d9b937b	0.07596489
33	0x3d8ee0c1	0.06976462
34	0xbd37c338	-0.04486391
35	0xbd02519d	-0.031816114
36	0xbd6e57ca	-0.05818919
37	0x3bfd64ab	0.007732948
38	0x3da443ef	0.0802077
39	0x3a0b9918	0.0005325242
40	0x3d72b380	0.059253216
41	0xbd530ef2	-0.051527925
42	0xbd90cefc	-0.07070729
43	0x3d92e23e	0.071720585
44	0xbd927b79	-0.07152457
45	0x3d87c47d	0.06629274
46	0x3d9050ed	0.07046685
47	0xbdad758c	-0.08469686
48	0xbd0af326	-0.03392329
49	0x3c371fbf	0.011177002
50	0x3db0563b	0.08610197
51	0xbd55e09c	-0.052216157
52	0xba9a4f8f	-0.0011772978
53	0xbd3cc2ec	-0.04608433
54	0x3d9de0a2	0.07708861
55	0x3c9dfdeb	0.019286117
56	0x3c82bc0c	0.015958808
57	0x3a9bdc4e	0.0011891217
58	0xbd89d790	-0.067305684
59	0x3da9f3b4	0.08298436
60	0xbd9b7f1e	-0.07592605
61	0xbd45cf6b	-0.048293512
62	0x3d9cccf9	0.07656283
63	0xbcc5b038	-0.02413188
64	0xbda9f518	-0.08298701
65	0x3da8a9c4	0.08235505
66	0xbd8a30a6	-0.0674756
67	0x3d921d6b	0.07134517
68	0x3b1991ea	0.0023432919
69	0xbab281c2	-0.0013618993
70	0x3d8e1d3f	0.06939172
71	0xbda99d18	-0.082819164
72	0x3a0140d4	0.00049306196
73	0xbcc58a2c	-0.024113737
74	0x3c432370	0.011910304
75	0x3d85c8cd	0.0653244
76	0xbcd43dbc	-0.025908343
77	0xbbddbfd5	-0.006767253
78	0xbd62703c	-0.055282816
79	0x3d571ba8	0.05251661
80	0x3cfe0b3c	0.031011216
81	0x3d81f83b	0.06346174
82	0xbdb0f551	-0.086405404
83	0xbd8a40cc	-0.0675064
84	0x3d816306	0.06317715
85	0xbd6a1f33	-0.05715866
86	0x3d2c1306	0.04201033
87	0xbcdf060f	-0.027224569
88	0x3db1476b	0.086562
89	0x3cd13ad8	0.025540754
90	0xbd5afb74	-0.05346246
91	0xbd9b06f2	-0.07569684
92	0xbd4ffac5	-0.05077626
93	0x3d28f5fc	0.041250214
94	0xbcd607c4	-0.02612675
95	0x3c3ffbeb	0.011717777
96	0xbdaf8e32	-0.085720435
97	0xbd67ff46	-0.056639932
98	0xbd40e203	-0.04709054
99	0xbd16b269	-0.03679124
100	0xbd816f85	-0.06320099
101	0x3c44e554	0.012017567
102	0xbcf4ae4c	-0.029868267
103	0xbd8156cd	-0.06315384
104	0x3d9af6ed	0.075666286
105	0x3d30015a	0.04297004
106	0x3db1e6f9	0.08686633
107	0xbd7d7bd4	-0.06188567
108	0x3d3c07fb	0.04590605
109	0x3c92f539	0.017939197
110	0xbd58b4cf	-0.052906808
111	0x3cfac839	0.030613052
112	0xbccec271	-0.025239201
113	0x3d9e1df6	0.07720558
114	0x3d8adf09	0.06780822
115	0x3d01ab47	0.031657483
116	0x3c932820	0.017963469
117	0xbd65b4f3	-0.05608077
118	0x3d6e73cf	0.058215912
119	0x3c0e3a4d	0.008680892
120	0xbd28e64c	-0.041235253
121	0xbd9fcedd	-0.07803128
122	0x3da390b3	0.079865836
123	0x3da0cc0a	0.07851417
124	0x3c81edab	0.0158604
125	0xbd94dca6	-0.07268648
126	0x3d8f1cb5	0.06987897
127	0x3b9ed0e8	0.004846681
128	0xbd88bcdd	-0.06676648
129	0x3d62741b	0.055286508
130	0xbd11f60f	-0.03563505
131	0xbc9ea64f	-0.019366411
132	0xbbc823db	-0.00610779
133	0xbda9706d	-0.08273397
134	0x3c3e94ee	0.011632187
135	0x3d40e880	0.04709673
136	0xbc698746	-0.014253443
137	0x3dad4db6	0.08462088
138	0xbc9081ed	-0.017640078
139	0xbd91d819	-0.071212955
140	0x3cd14159	0.025543856
141	0x3cea4758	0.028598472
142	0xbc31a138	-0.01084166
143	0x3bf08611	0.0073402007
144	0x3bbe604a	0.0058098184
145	0xbd8eadfd	-0.069667794
146	0xbc9619b0	-0.018322796
147	0x3d3ed11d	0.046586145
148	0xbd8efdba	-0.06981988
149	0x3c8c107e	0.017097708
150	0xbd9eee52	-0.077603
151	0xbd093922	-0.03350175
152	0x3cf9b99a	0.03048401
153	0xbd954b83	-0.07289793
154	0xbd1e4194	-0.03863676
155	0x3da87d19	0.082269855
156	0x3d742147	0.05960205
157	0xbcc0899e	-0.023503121
158	0xbc9a2f22	-0.018821303
159	0xbda816c5	-0.08207468
160	0x3d671b63	0.056422602
161	0x3ce31220	0.027718604
162	0x3ca7c1df	0.020478187
163	0xbda90ed6	-0.08254783
164	0x3d3e013d	0.0463879
165	0x3c9f4eee	0.019446816
166	0x3d17ef25	0.0370933
167	0x3c6ae3a0	0.014336497
168	0xbd8135bb	-0.063090764
169	0xbd056a98	-0.03257236
170	0xbd39263a	-0.04520247
171	0x3d3338a7	0.0437552
172	0xbbf991ab	-0.007616242
173	0xbd1489b0	-0.03626412
174	0xbc1ed96b	-0.009695391
175	0x3d19cfae	0.037551574
176	0x3dac3de8	0.08410245
177	0xbd877c32	-0.06615485
178	0xbdadb34f	-0.08481466
179	0x3d835ce8	0.06414205
180	0x3d5f2c2d	0.05448549
181	0x3d4b5cfc	0.049649224
182	0x3dabcfdf	0.08389258
183	0xbd63e36c	-0.05563681
184	0xbd9f4bc6	-0.077781245
185	0xbc87c302	-0.01657248
186	0x3ccd8a97	0.025090499
187	0xbd544b0c	-0.051829383
188	0x3da3759b	0.07981416
189	0x3d6a59eb	0.05721466
190	0x3d83915c	0.064242095
191	0xbc51665d	-0.012780753
192	0xbbb822be	-0.005619376
193	0xbcda2931	-0.02663097
194	0x3d340843	0.04395319
195	0x3bbb9a15	0.005725155
196	0xbd902509	-0.07038314
197	0x3d698d1d	0.05701934
198	0x3d950d6d	0.072779514
199	0xbd744983	-0.05964042
200	0x3db03457	0.08603733
201	0xbd2ae9c7	-0.041726854
202	0xbc754e3a	-0.014972264
203	0x3be1b4a3	0.0068879887
204	0xbd643653	-0.05571587
205	0x3cb274c6	0.021784198
206	0x3d039dcb	0.032132905
207	0xbc9b1310	-0.018929988
208	0x3d43e23f	0.047823187
209	0xbda9a583	-0.08283522
210	0x3d9e63ba	0.07733865
211	0x3db144c2	0.08655693
212	0xbd114bfa	-0.035472848
213	0x3d6011cf	0.054704484
214	0x3bbff22e	0.0058577275
215	0x3d8ff5a9	0.07029278
216	0x3c8c12be	0.01709878
217	0xbdb8786d	-0.090073444
218	0xbd46b38d	-0.048511077
219	0x3d02ba90	0.0319162
220	0x3d98ac55	0.07454745
221	0x3d7fa072	0.062408872
222	0xb91c5385	-0.00014908433
223	0xbc4aa8fb	-0.01236939
224	0xbd83fe63	-0.06445005
225	0x3d9bd491	0.07608903
226	0xbbfff0e1	-0.0078106974
227	0x3d794a46	0.06086185
228	0xbc9fd46f	-0.019510476
229	0x3d40aa24	0.04703726
230	0xbc9ef88e	-0.01940563
231	0x3d0a39e0	0.0337466
232	0xbc631686	-0.0138603505
233	0x3d4c7c84	0.049923435
234	0xbc8a9eaf	-0.01692137
235	0xbb8eda26	-0.0043595014
236	0x3c91bd3f	0.017790435
237	0x3c1cde6c	0.009574514
238	0x3d951d84	0.0728102
239	0x3d842dc3	0.06454041
240	0xbd6c032f	-0.057620224
241	0xbd5e1dc1	-0.054227594
242	0xbd24a97e	-0.040200703
243	0xba598660	-0.00082979165
244	0x3db5df0c	0.088804334
245	0xbd3958dd	-0.045250762
246	0x3d069723	0.03285898
247	0x3cdbabe5	0.026815364
248	0x3cddb25d	0.02706259
249	0xbc30eca5	-0.010798608
250	0xbda1d508	-0.079019606
251	0xbd1d2fcc	-0.03837566
252	0x3ccc9efb	0.024978152
253	0x3d8f1bd2	0.06987728
254	0xbb4cd265	-0.0031253335
255	0xbd63ad61	-0.05558527

actor.linear2.bias f4 [128]
0	0xbda3843b	-0.07984205
1	0x3da4d1f5	0.080478586
2	0x3cda0975	0.026615838
3	0xbd5fe606	-0.054662727
4	0xbd4291d3	-0.04750235
5	0x3b8b87c0	0.004258126
6	0xbd996941	-0.07490779
7	0x3d982e93	0.07430758
8	0x3d4a543e	0.049396746
9	0xbd9a96db	-0.07548305
10	0xbd47e5be	-0.048803084
11	0x3d632fb5	0.05546542
12	0x3c0541aa	0.008133331
13	0xbd490f23	-0.0490867
14	0x3ca7bd93	0.020476138
15	0x3c0bf676	0.008542648
16	0x3c73ec3d	0.014887867
17	0xbd90b23e	-0.07065247
18	0xbc875a6b	-0.016522607
19	0xbd98ac7d	-0.074547745
20	0xbc166a3f	-0.0091806045
21	0xbd48aff7	-0.04899594
22	0xbda5ec45	-0.081017055
23	0x3cef7a47	0.029233111
24	0xbd93aedb	-0.072110854
25	0x3d8878b6	0.06663649
26	0x3bf7b3a2	0.0075592557
27	0x3da64801	0.081192024
28	0x3bca1bf6	0.006167884
29	0x3db15384	0.086585075
30	0x3d0dbdc4	0.034604803
31	0xbd39c258	-0.045351356
32	0xbcd9f313	-0.026605165
33	0xbd4b5bbb	-0.049648028
34	0xbd7af8eb	-0.061272543
35	0xbd0304f0	-0.03198713
36	0x3d4fb4be	0.05070948
37	0x3d52546f	0.051350053
38	0xbdabaa7c	-0.08382127
39	0xbdaacece	-0.08340226
40	0x3d19ec01	0.037578586
41	0xbd977816	-0.073959514
42	0xbd9b13a5	-0.07572106
43	0x3d0b427d	0.033998955
44	0xbda7fed9	-0.08202905
45	0xbdaf14c1	-0.0854888
46	0xbda59b70	-0.08086288
47	0xbd801dfc	-0.06255719
48	0x3b893636	0.0041873707
49	0x3d417402	0.047229774
50	0xbcf09be6	-0.029371213
51	0xbb911bae	-0.0044283485
52	0x3d90ee34	0.07076684
53	0xbcb5c4bb	-0.022188535
54	0x3d24eae6	0.04026308
55	0x3c42f2bb	0.011898692
56	0xbcaeb397	-0.02132587
57	0xbbe9d716	-0.007136236
58	0x3d92d1c0	0.07168913
59	0xbd7a2fb8	-0.061080664
60	0xbcfd57ea	-0.03092571
61	0xbd95300c	-0.07284555
62	0x3c5de5c4	0.01354355
63	0x3c985391	0.018594535
64	0xbc3228a4	-0.010873947
65	0x3d506400	0.050876617
66	0xbc07174c	-0.0082453005
67	0x3d14c746	0.036322854
68	0xbcfb24ff	-0.03065729
69	0xbdb48b86	-0.088156745
70	0xbdac972d	-0.08427272
71	0x3da4ed84	0.08053115
72	0x3caba4f5	0.020952681
73	0x3d564a15	0.052316744
74	0xbd527487	-0.05138066
75	0x3d2292f3	0.039690923
76	0x3d287897	0.04113063
77	0xbd2844a7	-0.041081097
78	0xbd0396c0	-0.03212619
79	0xbd5433d6	-0.051807247
80	0x3daf7af7	0.085683756
81	0x3d98f86c	0.07469258
82	0xbd9a0581	-0.07520581
83	0xbd830cac	-0.06398901
84	0x3be2d7d4	0.0069227014
85	0x3d0c654b	0.034276288
86	0x3d98259f	0.07429051
87	0xbd882fdd	-0.06649754
88	0xbbc6753a	-0.006056455
89	0xbd9d02f5	-0.0766658
90	0x3d46641f	0.048435327
91	0xbd204e83	-0.039137375
92	0xbd740283	-0.059572708
93	0xbd9f5781	-0.07780362
94	0x3c38f3e3	0.011288616
95	0x3d8725ff	0.06599044
96	0xbdb0a78b	-0.08625706
97	0xbdab169e	-0.08353923
98	0xbd7d267c	-0.06180428
99	0x3cfb0493	0.03064183
100	0x3cbaf8e9	0.022823768
101	0xbc3958ae	-0.011312647
102	0x3bb171b2	0.005415165
103	0x3d33881c	0.043830976
104	0x3caf3a0c	0.021389984
105	0x3ce46bd3	0.027883446
106	0xbd6bc0a8	-0.05755678
107	0xbd6f7a8a	-0.05846647
108	0x3d8f1579	0.069865175
109	0xbd822b05	-0.063558616
110	0x3d2177fe	0.039421074
111	0xbbfe26fe	-0.007756113
112	0xba82c75d	-0.0009977628
113	0xbaa33bba	-0.0012453713
114	0x3d51d040	0.051223993
115	0xbd4a7729	-0.049430046
116	0x3d33684d	0.04380064
117	0x3d889218	0.0666849
118	0x3d5049c4	0.0508516
119	0xbd557424	-0.052112713
120	0x3cd7a36e	0.026323047
121	0x3ceab246	0.02864946
122	0x3d671342	0.05641485
123	0xbb157338	-0.0022804271
124	0x3d6f5795	0.058433134
125	0xbdb8eb18	-0.090292156
126	0xba81a1f4	-0.0009890185
127	0xbcc34514	-0.02383665

actor.linear3.weight f4 [128, 128]
0	0x3c80d92c	0.015728556
1	0xbd071bf4	-0.032985643
2	0xbc14552e	-0.009053512
3	0xbcf2a2bf	-0.029618619
4	0x3c4113ed	0.011784536
5	0x3d7e08a5	0.062019963
6	0x3d09ffbc	0.033691153
7	0xbd31afb4	-0.043380454
8	0x3d80ed81	0.062953
9	0xbc4a6738	-0.012353711
10	0x3c68e4d9	0.014214718
11	0xbd9a8960	-0.075457335
12	0x3d3e2f3a	0.046431758
13	0x3d38c10c	0.04510598
14	0xbd147ac9	-0.03624991
15	0xbc7fdd7e	-0.015616773
16	0x3d932dbb	0.07186457
17	0x3bd137ee	0.006384841
18	0xbd6ae9b0	-0.057351768
19	0xbd30ddba	-0.043180205
20	0xbc067009	-0.008205422
21	0xbccbd432	-0.024881456
22	0xbd8b466f	-0.068005435
23	0x3c9f51f4	0.019448258
24	0xbc3c0f9a	-0.011478329
25	0xbb8f108c	-0.004365986
26	0xbd7f166d	-0.062277246
27	0xbcd54e35	-0.026038269
28	0x3db53180	0.08847332
29	0x3d822e04	0.06356433
30	0x3dae7410	0.08518231
31	0xbbd39e38	-0.00645807
32	0xbcc0ebdd	-0.023549968
33	0x3d24b01b	0.04020701
34	0x3d171d27	0.036893036
35	0xbbe9d332	-0.007135772
36	0x3d2c9e9f	0.04214346
37	0xbd32b523	-0.043629777
38	0xbd2db6a5	-0.04241051
39	0x3b78ae91	0.0037945847
40	0x3d8cef87	0.06881624
41	0xbc526427	-0.012841261
42	0xbd94576d	-0.07243238
43	0x3dabf5b6	0.08396475
44	0xbc13052e	-0.008973403
45	0xbda22226	-0.079166695
46	0x3d854104	0.06506541
47	0xbd82cff6	-0.06387322
48	0x3d94b900	0.072618484
49	0xbd4e0f48	-0.050307542
50	0x3c0774b1	0.0082675675
51	0x3d02da08	0.031946212
52	0x3cb93c20	0.022611678
53	0xbd9b6bf1	-0.075889476
54	0x3c466730	0.012109563
55	0xbd30fe7f	-0.043211456
56	0xbda7cba6	-0.0819314
57	0x3da5895e	0.08082841
58	0x3c28d50f	0.010304703
59	0xbd48e999	-0.0490509
60	0x3d01a2cc	0.031649396
61	0xbc70f86d	-0.014707667
62	0xbd5c7bbb	-0.053828936
63	0xbd1d40b2	-0.038391776
64	0x39fb7cac	0.00047967338
65	0x3c8b5fc5	0.01701344
66	0x3d85a1bb	0.06524988
67	0x3d0b35d4	0.03398688
68	0xbd1ee374	-0.038791135
69	0xbd4ce269	-0.05002061
70	0xbcff3dd8	-0.03115742
71	0x3d8f6f55	0.07003657
72	0x3d89bba8	0.06725246
73	0xbc963239	-0.018334495
74	0x3cf93e60	0.03042525
75	0x3da518a0	0.080613375
76	0xbb89fc12	-0.0042109573
77	0x3d04acda	0.032391407
78	0xbda9a4bc	-0.08283374
79	0x3d1e01ea	0.038576044
80	0xbb69f30f	-0.0035697853
81	0xbda0721f	-0.07834267
82	0xbdb2a350	-0.08722556
83	0x3d84cca4	0.064843446
84	0xbd8642eb	-0.06555732
85	0xbc4973dc	-0.012295689
86	0xbdb0ef79	-0.08639426
87	0x3d0d9c76	0.03457304
88	0x3d56c165	0.05243053
89	0x3c877947	0.016537322
90	0xbc86f8f1	-0.016476126
91	0x3ca8de5a	0.020613838
92	0xbd8f6364	-0.07001379
93	0x3d432964	0.047646895
94	0x3d7cc9f8	0.06171605
95	0x3ade2ceb	0.0016950642
96	0xbdaa0ff7	-0.08303826
97	0x3d0874c3	0.033314478
98	0xbda8266a	-0.08210452
99	0xbd77ed75	-0.06052919
100	0xbd8680e5	-0.065675534
101	0xbd86ab27	-0.065756135
102	0xbd9ca133	-0.07647934
103	0xbbac3526	-0.005255359
104	0x3daf86ed	0.08570657
105	0x3c105bb9	0.008810931
106	0xbdb45292	-0.088048115
107	0xbb2b5f74	-0.0026149424
108	0xbc91bbe6	-0.017789792
109	0xbd5a3851	-0.053276364
110	0xbd165cd5	-0.036709625
111	0x3d1bc0af	0.038025554
112	0xbcf5616e	-0.029953685
113	0x3d3e68b0	0.046486557
114	0x3ca56771	0.020190926
115	0x3c0a89c8	0.008455701
116	0x3ce7b1f0	0.02828309
117	0xbc2f4ed2	-0.010699945
118	0x3daa093f	0.08302545
119	0xbd788675	-0.060675103
120	0xbd9176ea	-0.07102759
121	0xbcece362	-0.028917018
122	0x3d9e4074	0.07727137
123	0x3c7bd8d8	0.015371524
124	0x3d2d4d7d	0.042310227
125	0xbc932d64	-0.01796598
126	0xbd806414	-0.062690884
127	0xbd7dc342	-0.06195379
128	0x3db064bf	0.08612966
129	0xbd1a1293	-0.03761537
130	0x3d2f04fa	0.042729355
131	0x3c8a330b	0.016870042
132	0x3d4fd8dc	0.050743923
133	0xbd0480a5	-0.032349247
134	0xbc4be764	-0.012445305
135	0xbda3c083	-0.07995703
136	0xbdac81b1	-0.08423174
137	0xbda47566	-0.080302045
138	0x3d49d906	0.049279235
139	0x3da0547b	0.07828613
140	0x3bc52c37	0.0060172337
141	0x3d98861c	0.07447454
142	0xbd89f48c	-0.06736097
143	0x3d850bc8	0.06496388
144	0x3c8eee84	0.017447717
145	0x3daaf46e	0.083474025
146	0xbd2bd17b	-0.041947823
147	0xbd34c08e	-0.044128947
148	0x3cb93361	0.022607507
149	0xbdaa7867	-0.08323746
150	0x3da606a9	0.08106739
151	0xbb9fa983	-0.0048725023
152	0x3d950050	0.0727545
153	0x3b96ef54	0.004606167
154	0xbdb28e90	-0.08718598
155	0xbd043511	-0.03227717
156	0xbd0b2735	-0.033972938
157	0x3d0a03a9	0.033694897
158	0xbd86816b	-0.06567653
159	0x3835fc10	4.3388514e-05
160	0xbdaa3da1	-0.08312536
161	0x3ca5eb12	0.020253692
162	0x3cfc2a45	0.030781874
163	0xba8c64b1	-0.0010711161
164	0xbda7831a	-0.081793025
165	0xbc9b749f	-0.018976508
166	0x3d480370	0.048831403
167	0xbba295c9	-0.0049617034
168	0xbc588b5b	-0.013216819
169	0x3d10e5b9	0.03537533
170	0x3d0c3a71	0.03423542
171	0x3d7959b4	0.060876563
172	0xbd89bc3e	-0.067253575
173	0x3d5fd240	0.05464387
174	0xbd98f27d	-0.07468126
175	0x3d2e632b	0.042575043
176	0x3c9289b9	0.017887937
177	0xbd9d9e4e	-0.0769621
178	0x3c55432b	0.013016502
179	0x3d7ac67c	0.061224446
180	0xbd6357db	-0.055503707
181	0xbcef9eaa	-0.029250462
182	0xbd3ca5c7	-0.046056535
183	0x3d7ac777	0.06122538
184	0xbabc18b5	-0.0014350625
185	0x3b3000da	0.0026855976
186	0x3d6c7e62	0.057737716
187	0xbbfad027	-0.007654208
188	0xbd3aeb5b	-0.04563461
189	0x3d4db99f	0.05022585
190	0x3cedfbc2	0.029050712
191	0xbc7ca85e	-0.015421001
192	0x3d0c50ba	0.034256674
193	0xbba095ae	-0.0049006557
194	0xbcd69fad	-0.026199186
195	0x3a178872	0.0005780525
196	0xbd392d6a	-0.045209326
197	0xbd99b563	-0.075053
198	0xbcd488c5	-0.025944123
199	0x3d9b980d	0.07597361
200	0xbd646031	-0.055755798
201	0xbda1946c	-0.07889637
202	0xbd9a7883	-0.07542517
203	0x3d3f1e03	0.04665948
204	0xbda2b4e7	-0.07944661
205	0xbc2f48f9	-0.01069855
206	0x3d45cacd	0.04828911
207	0x3d2beecc	0.04197578
208	0xbcc8f8f7	-0.024532778
209	0x3d8d688d	0.06904707
210	0x3b31f0ff	0.0027151702
211	0x3d8394d8	0.06424874
212	0xbc2e94e9	-0.01065562
213	0x3da1b3aa	0.07895596
214	0xbd43a1f2	-0.047761865
215	0xbd922bb4	-0.07137242
216	0x3d9e8df1	0.07741917
217	0x3daefaa3	0.08543899
218	0x3da5fba6	0.08104639
219	0xbda96258	-0.08270711
220	0xbd121517	-0.035664644
221	0xbd1ef9b2	-0.038812347
222	0x3d173136	0.036912166
223	0xbd1c4fe1	-0.038162116
224	0xbac81ea5	-0.0015267922
225	0x3c9d087c	0.019169085
226	0xbb80163f	-0.003908902
227	0xbdae0846	-0.08497672
228	0x3cf0e427	0.029405667
229	0x3cfc1366	0.030770969
230	0xbd9aa400	-0.07550812
231	0xbd0105ff	-0.03149986
232	0x3d8b8ebf	0.06814336
233	0xbc9524b9	-0.018205987
234	0xbd172481	-0.036900047
235	0x3caa8a64	0.020817943
236	0x3db0179a	0.08598252
237	0x3d87953b	0.0662026
238	0x3d350556	0.044194542
239	0x3b091a77	0.0020920315
240	0x3d94d17e	0.0726652
241	0x3da52884	0.08064368
242	0xbd9de3b9	-0.0770945
243	0x3db05a06	0.086109206
244	0x3ceadffb	0.028671255
245	0x3cb5242e	0.022111978
246	0x3dabd002	0.08389284
247	0xbd3482ac	-0.04406993
248	0xbd79c54d	-0.060979176
249	0xbda2fd6a	-0.07958491
250	0xbd3040c1	-0.043030504
251	0xbd91db50	-0.07121909
252	0xbbcb030a	-0.0061954306
253	0x3da64c97	0.08120077
254	0x3d05fa65	0.032709498
255	0x3d28f141	0.041245703

actor.linear3.bias f4 [128]
0	0xbd9b52d7	-0.0758416
1	0x3da65e0b	0.08123406
2	0x3d7088d7	0.05872425
3	0xbc7bc009	-0.015365609
4	0x3babeed6	0.0052469773
5	0x3d37e7bc	0.044898733
6	0x3d8ce584	0.06879714
7	0x3d8656fe	0.06559561
8	0xbd84e4f3	-0.06488981
9	0x3bd54395	0.0065083005
10	0x3cfc6a44	0.03081239
11	0xbd722339	-0.059115622
12	0x3d9b0bb3	0.07570591
13	0xba968612	-0.0011484048
14	0xbced9a37	-0.0290042
15	0x3cfc6887	0.030811561
16	0xbd20e67d	-0.03928231
17	0xbb1ff059	-0.0024404733
18	0xbc6a27bd	-0.014291701
19	0xbcbb6691	-0.022876056
20	0xbc7f2a09	-0.015573987
21	0xbd8cc1b3	-0.06872883
22	0x3ca012ec	0.019540273
23	0x3c03f3a0	0.00805369
24	0x3d22083d	0.039558638
25	0x3da49b24	0.08037403
26	0xbbe942af	-0.007118545
27	0x3d506e46	0.050886415
28	0xbd6423f5	-0.055698354
29	0xbc4057d0	-0.011739686
30	0x3d9e8467	0.077400975
31	0x3d9a05bb	0.07520624
32	0xbc406d72	-0.011744844
33	0xbd8c4ec8	-0.06850964
34	0xbca96979	-0.020680176
35	0xbd7d5888	-0.061852008
36	0xbd8f84e4	-0.07007769
37	0xbca07a4c	-0.019589566
38	0x3d02f7d4	0.03197463
39	0xbd950e9e	-0.07278179
40	0x3d90895c	0.07057449
41	0x3d55ef50	0.05223018
42	0xbcd05678	-0.025431857
43	0x3c1ae61c	0.009454276
44	0xbd53a435	-0.051670272
45	0x3d5b75ed	0.05357926
46	0xbd602ab1	-0.054728214
47	0x3d2c114f	0.042008694
48	0x3d92240b	0.07135781
49	0x3d80e0bc	0.06292865
50	0x3b86364f	0.0040958296
51	0x3db0807b	0.08618256
52	0x3db12560	0.08649707
53	0xbcdaf971	-0.026730271
54	0xbdb03d43	-0.08605435
55	0xbcb01fd1	-0.021499546
56	0xbd0928c1	-0.03348613
57	0x3c6b27bb	0.014352734
58	0xbd3a6fe8	-0.04551688
59	0x3d024b70	0.031810224
60	0x3d63e32e	0.055636577
61	0xbda6c5fc	-0.08143231
62	0xbd3fd4ef	-0.04683393
63	0xbd52341d	-0.05131923
64	0xbd546c51	-0.05186111
65	0xbce73453	-0.028223192
66	0x3b54163f	0.0032361893
67	0xbd4f5f80	-0.050628185
68	0x3a310c89	0.0006753882
69	0x3d5ea5d4	0.054357365
70	0x3d68ef42	0.0568688
71	0xbc91f1e6	-0.017815541
72	0x3c922961	0.017841997
73	0xbd51e154	-0.05124028
74	0x3d7a1780	0.061057568
75	0xbda64304	-0.08118251
76	0xbd486030	-0.048919857
77	0xbd90625d	-0.07050011
78	0xbd091e47	-0.03347614
79	0x3db5bb8c	0.08873662
80	0x3bbe5bd4	0.0058092866
81	0xbd75ea5d	-0.06003796
82	0x3c8f3286	0.017480146
83	0xbcc8dcba	-0.024519313
84	0xbda886cf	-0.08228838
85	0x3dab6177	0.08368199
86	0xbd0c2d51	-0.034222905
87	0xbd31b410	-0.04338461
88	0xbd180cb2	-0.037121482
89	0x3c5fd81c	0.013662364
90	0xbc3a142f	-0.011357351
91	0x3bf641a8	0.007515151
92	0xbd1bc5ba	-0.038030364
93	0x3d73ed0d	0.05955224
94	0x3ccc0308	0.02490379
95	0xbcb104f3	-0.021608805
96	0xbdb34172	-0.08752717
97	0x3d473e73	0.04864354
98	0xbd747ded	-0.059690405
99	0x3c866a4e	0.016408112
100	0xbd8093cf	-0.06278192
101	0x3d6213c4	0.05519463
102	0xbd9b432e	-0.07581173
103	0xbdb09eb3	-0.086240195
104	0x3d931fdf	0.07183813
105	0xbd85a0d5	-0.06524817
106	0xbd5266ad	-0.05136745
107	0x3d0d993a	0.034569956
108	0x3da074ad	0.07834754
109	0xbce0d913	-0.027447259
110	0x3d0d687c	0.034523472
111	0x3c7028d1	0.014658169
112	0x3d2d4b07	0.04230788
113	0x3bc89318	0.0061210506
114	0x3ca38b9d	0.019964034
115	0xbcc9f75d	-0.024654085
116	0x3dae371f	0.08506607
117	0xbd3bc98a	-0.0458465
118	0xbd8006b0	-0.062512755
119	0xbc8c529f	-0.01712924
120	0x3d79f148	0.06102112
121	0x3d8558b7	0.06511062
122	0xbd74440d	-0.05963521
123	0x3d262d9f	0.04057085
124	0xbd24e020	-0.040252805
125	0xbd4cde5c	-0.050016746
126	0xbd3e15b1	-0.046407405
127	0xbda8de54	-0.08245531

actor.linear4.weight f4 [9, 128]
0	0x3d40984c	0.04702024
1	0x3da8f9e8	0.08250791
2	0xbd39b81d	-0.0453416
3	0x3cc3dfe4	0.02391047
4	0xbd8ef53c	-0.069803685
5	0x3c0661f7	0.008202068
6	0xbd957209	-0.07297141
7	0x3ce5a928	0.028034762
8	0x3daf7d7a	0.08568855
9	0xbd32855f	-0.043584224
10	0x3d982cf8	0.07430452
11	0xbd80ceea	-0.06289466
12	0xbc9fb4f3	-0.019495463
13	0xbd27b9e0	-0.04094875
14	0x3d685dd4	0.056730106
15	0x3aceafac	0.0015768907
16	0x3d401ddb	0.046903472
17	0x3ae78db0	0.0017666128
18	0x3d3891ef	0.045061048
19	0x3d40cf8a	0.047072925
20	0xbd295aac	-0.041346237
21	0xbd94d7e7	-0.072677426
22	0xbd613ce0	-0.054989696
23	0xbcbc51b1	-0.022988172
24	0xbdb1516a	-0.086581066
25	0xbc28e434	-0.010308314
26	0x3cd9fa03	0.026608473
27	0x3d011dfa	0.03152273
28	0x3bb81f71	0.0056189825
29	0xbc9e49d4	-0.019322313
30	0xbd379483	-0.044819366
31	0x3da335a2	0.07969214
32	0xbd48650a	-0.048924483
33	0x3d804764	0.06263617
34	0xbd05adcc	-0.03263645
35	0xbd7dbc4f	-0.061947163
36	0xbd83521e	-0.06412147
37	0x3d2c418c	0.042054698
38	0xbdb261bb	-0.08710047
39	0x3bb65b1d	0.005565061
40	0x3d9ca053	0.07647767
41	0x3d834c7d	0.06411073
42	0xbd21452b	-0.039372604
43	0x3d040423	0.032230508
44	0xbda6558a	-0.08121784
45	0x3c018a00	0.007906437
46	0xbd63f972	-0.05565781
47	0xbcc2464e	-0.023715165
48	0x3c678529	0.014130869
49	0xbd9573eb	-0.072975
50	0x3b53c4bd	0.003231331
51	0x3b4d192a	0.0031295517
52	0x3c9ca847	0.01912321
53	0x3c8a6723	0.016894883
54	0xbb744c7e	-0.0037277038
55	0xbb05aa12	-0.002039556
56	0x3d46a69e	0.048498742
57	0x3d181da7	0.037137654
58	0xbc5cf765	-0.013486718
59	0x3db26025	0.08709744
60	0x3da7184f	0.08158933
61	0xbd086f89	-0.033309493
62	0xbd9fa403	-0.07794955
63	0xbd7cfd70	-0.061765134
64	0xbd91bf87	-0.07116609
65	0x3b840808	0.0040292777
66	0xbd051476	-0.032490216
67	0x3daca4cc	0.0842987
68	0xbb9645a3	-0.004585938
69	0xbc9d2bc5	-0.01918591
70	0xbda449b6	-0.08021872
71	0x3d86e1c5	0.06586031
72	0xbd75bc88	-0.05999425
73	0xbbf06979	-0.007336792
74	0xbbf5123a	-0.0074789794
75	0xbbe636b4	-0.007025564
76	0xbd80ef19	-0.06295604
77	0x3c7cd769	0.015432217
78	0x3d096d79	0.033551667
79	0x3d5743fd	0.052555073
80	0xbd525244	-0.051347986
81	0xbd929ff7	-0.07159417
82	0xba5f8574	-0.0008526661
83	0xbc61ac5c	-0.013774004
84	0xbaa4895c	-0.0012553143
85	0xbced032e	-0.02893218
86	0x3d862542	0.06550075
87	0xbd59a6c9	-0.053137574
88	0x3da65477	0.08121579
89	0x3c8def0a	0.017325897
90	0x3d0e9468	0.0348095
91	0xbd357528	-0.044301182
92	0x3c9ca9c7	0.019123925
93	0x3d05d368	0.032672316
94	0x3d5554e5	0.052082915
95	0xbc7d3616	-0.01545479
96	0x3d5833b7	0.052783694
97	0x3cd0115f	0.025398908
98	0xbd9ec948	-0.07753235
99	0x3d7cd525	0.061726708
100	0xbcfa6792	-0.030566964
101	0xbcec1dd9	-0.028822826
102	0xbc84abe2	-0.016195241
103	0x3d659ed8	0.05605969
104	0xbc135ceb	-0.008994321
105	0xbd6b6b19	-0.057475183
106	0x3daf7216	0.08566682
107	0xbd273563	-0.040822398
108	0x3daf804a	0.08569391
109	0x3d974c4b	0.073875986
110	0x3ce4523b	0.027871242
111	0xbcd04a0b	-0.025425931
112	0x3d7177e3	0.058952224
113	0xbc7423a2	-0.014901074
114	0x3d479690	0.048727572
115	0x3ccf0fe0	0.025276124
116	0x3d065cff	0.03280353
117	0x3d9d917c	0.076937646
118	0xbd55ca2c	-0.05219476
119	0x3d598dd6	0.05311378
120	0xbaad434e	-0.0013218911
121	0x3db06b24	0.086141855
122	0xbd00ed22	-0.031476147
123	0x3d9efe1c	0.07763311
124	0xbc9b8c85	-0.018987903
125	0xbd5b3e9a	-0.0535265
126	0xbc9bc349	-0.019014018
127	0xbd55076d	-0.052009035
128	0x3cea39cc	0.028592013
129	0xbd067d64	-0.032834426
130	0x3d856c9c	0.06514856
131	0x3c551524	0.013005529
132	0x3d03cd6e	0.032178335
133	0xbd2eb06d	-0.04264872
134	0xbd2898d6	-0.04116138
135	0x3cbfeb0d	0.02342751
136	0xbd8309cc	-0.06398353
137	0x3d92437b	0.07141777
138	0x3cf59f11	0.029983075
139	0x3d388fc6	0.045058988
140	0xbd4623a1	-0.048373822
141	0x3da86e6f	0.082241885
142	0x3cd134f5	0.025537947
143	0xbcd358dc	-0.025799207
144	0x3db8518d	0.089999296
145	0xbcdbf487	-0.026849998
146	0x3d9e8296	0.07739751
147	0xbd0a5ba0	-0.033778787
148	0x3d662a12	0.056192465
149	0x3d16edde	0.03684794
150	0xbda5f055	-0.0810248
151	0xbda5c513	-0.080942295
152	0x3c1c09bb	0.009523804
153	0xbd3a7bbb	-0.045528155
154	0x3dba1246	0.09085517
155	0xbda062ed	-0.078313686
156	0xbc0c4dbf	-0.008563458
157	0xbbcee916	-0.006314407
158	0xbd979122	-0.07400729
159	0x3c39b590	0.011334792
160	0x3d9ef969	0.07762415
161	0xbc3875be	-0.011258541
162	0xbd871130	-0.06595075
163	0xbd8dd70c	-0.069257826
164	0xbc9bb581	-0.019007446
165	0x3c44b25f	0.012005418
166	0x3cbe5986	0.023236047
167	0x3c9d5354	0.019204773
168	0xbd9f6b58	-0.07784146
169	0xbda7add9	-0.08187456
170	0x3d978603	0.073986076
171	0xbbe57ce2	-0.0070034126
172	0x3d35873f	0.044318434
173	0x3d141c88	0.036160022
174	0xbd3a9cbe	-0.045559637
175	0x3d761de3	0.060087096
176	0x3d54af65	0.05192508
177	0xbdae5949	-0.085131235
178	0xbca7977b	-0.020457974
179	0xbd7dc016	-0.061950766
180	0xbd93336b	-0.071875416
181	0xbd964b24	-0.07338551
182	0x3d512258	0.051058143
183	0xbd9d0677	-0.07667249
184	0xbd8ff9ce	-0.07030068
185	0x3cd96661	0.026538076
186	0xbca0f37e	-0.019647356
187	0xbd895d7e	-0.06707285
188	0x3d64b8c5	0.055840272
189	0x3c76ddc4	0.0150675215
190	0xba0b1e1d	-0.00053069164
191	0x3da5e9a7	0.08101206
192	0x3d0bea28	0.034158856
193	0xbcdc76df	-0.02691215
194	0xbd3f7b1c	-0.046748266
195	0x3d52698a	0.05137018
196	0xbc9b20e7	-0.018936587
197	0x3ccdcfb4	0.025123455
198	0xbd6cc86a	-0.057808317
199	0x3d7ef9a4	0.062249795
200	0x3d80223b	0.06256529
201	0x3d031916	0.032006346
202	0x3d95f79f	0.073226206
203	0x3c55f670	0.013059244
204	0xbcaed176	-0.021340113
205	0xbc9fb7c4	-0.019496806
206	0x3d70da22	0.058801778
207	0x3ca5fa29	0.020260887
208	0xbd365f06	-0.044524215
209	0x3d726e61	0.059187297
210	0x3d8b7a16	0.068103954
211	0xbdac8492	-0.08423723
212	0x3d801823	0.06254604
213	0x3c8a9fc7	0.01692189
214	0x3b8b32e0	0.004248008
215	0xbc3aba64	-0.011396978
216	0xbcc9b19f	-0.02462083
217	0xbda29120	-0.07937837
218	0xbd965080	-0.07339573
219	0x3d727288	0.059191257
220	0xba0d3fd0	-0.0005388232
221	0xbbd3d47a	-0.006464538
222	0x3da64ecd	0.08120499
223	0x3d9ad29b	0.07559701
224	0xbd8cd296	-0.068761036
225	0xbda16223	-0.07880046
226	0x3d3dc274	0.046328023
227	0xbc371b09	-0.011175879
228	0x3d8a055f	0.06739306
229	0xbd1951d2	-0.037431546
230	0x3dadae43	0.084805034
231	0x3d9200fe	0.071290955
232	0xbce5124b	-0.027962824
233	0x3da637c5	0.08116106
234	0x3d9386b5	0.07203428
235	0xbcbf8d22	-0.023382727
236	0x3da09386	0.07840638
237	0xbc1e3b84	-0.009657744
238	0xbd80199f	-0.06254887
239	0x3d8c9b71	0.068655856
240	0x3d897d5c	0.067133635
241	0xbc6153b4	-0.013752867
242	0x3dadddc0	0.08489561
243	0x3d874050	0.066040635
244	0x3ca0226c	0.019547664
245	0xb99c4cf7	-0.00029811982
246	0xbdaf101c	-0.085479945
247	0x3da9608e	0.082703695
248	0x3d952f14	0.0728437
249	0xbd5e1adf	-0.054224845
250	0xbcbcd1f0	-0.023049325
251	0x3c7e0885	0.015504961
252	0x3d8f35c0	0.06992674
253	0xbcb8601d	-0.022506768
254	0xbd07cecd	-0.033156205
255	0xbd3bd1c7	-0.045854356

actor.linear4.bias f4 [9]
0	0xbd82d03f	-0.06387376
1	0xbd0ef8c9	-0.03490523
2	0x3d41955c	0.04726158
3	0x3c6775dc	0.014127221
4	0xbd451bd7	-0.048122253
5	0xbd2d3142	-0.042283304
6	0x3d95f2a8	0.07321674
7	0x3cfee8e9	0.03111692
8	0xbc860a4a	-0.016362328

critic.linear1.weight f4 [128, 120]
0	0xbbc83e81	-0.0061109667
1	0x3cb446b4	0.02200637
2	0xbd669347	-0.0562928
3	0xbdb2c90c	-0.08729753
4	0x3d9399ff	0.07207107
5	0x3d1cca71	0.038279
6	0x3cef1c3e	0.029188272
7	0xbd9cd131	-0.076570876
8	0xbd183546	-0.03716018
9	0x3c32cdf7	0.010913364
10	0xbd94d6a2	-0.072675005
11	0xbd8ff15e	-0.07028459
12	0x3cc71d4c	0.024305962
13	0x3d3e9fa2	0.046538956
14	0xbd6ba78a	-0.057532825
15	0xbcfe9a40	-0.031079412
16	0xbda618e7	-0.081102185
17	0xbc22343f	-0.009900152
18	0xbd666113	-0.05624492
19	0x3bf37c6f	0.007430605
20	0xbd6c1287	-0.057634857
21	0xbc088164	-0.00833163
22	0x3d9f40bc	0.07776019
23	0xbd66e48a	-0.056370296
24	0xbd9346ab	-0.07191213
25	0xbd033148	-0.03202942
26	0x3d510128	0.051026493
27	0x3daca07f	0.0842905
28	0xbdb655e2	-0.089030996
29	0x3d378187	0.04480126
30	0xbc47ede0	-0.01220271
31	0xbd980b89	-0.07424075
32	0x3ca1b5bd	0.01973998
33	0xbd84bd1b	-0.064813815
34	0x3d932643	0.07185032
35	0xbda1e1e8	-0.07904416
36	0x3d06491b	0.032784563
37	0x3d7f1994	0.062280253
38	0xbccf2a55	-0.02528874
39	0x3d9e0e51	0.077175744
40	0xbcd3352c	-0.02578219
41	0x3d283f37	0.04107591
42	0xbdaa0875	-0.08302394
43	0x3ca9195c	0.020641975
44	0x3d9aba30	0.07555044
45	0x3c677b6e	0.014128549
46	0x3d5b3436	0.05351659
47	0xbd3049ff	-0.04303932
48	0xbc716c4f	-0.014735295
49	0x3d85268c	0.06501493
50	0xbcb07311	-0.021539243
51	0x3d9f3d07	0.07775312
52	0x3993284d	0.0002806805
53	0xbc821b39	-0.015882121
54	0xbc913b07	-0.017728342
55	0x3cc9f780	0.02465415
56	0xbc8279a4	-0.015927143
57	0xbdcee709	-0.1010266
58	0xbcf8179e	-0.030284699
59	0xbbc764e8	-0.006085027
60	0xbd56602a	-0.052337803
61	0x3d2477a7	0.040153172
62	0xbbf48df1	-0.00746321
63	0x3c994328	0.01870878
64	0x3db2c018	0.08728045
65	0x3c197137	0.009365371
66	0xbd8367a2	-0.06416251
67	0x3d937a21	0.072010286
68	0x3ce13f25	0.02749593
69	0xbd1d4bec	-0.038402483
70	0xbd62b65e	-0.0553497
71	0x3b9bb88a	0.0047522234
72	0x3d5d9126	0.054093502
73	0xbd80f014	-0.06295791
74	0xbd34da07	-0.04415324
75	0x3d727180	0.059190273
76	0x3d926cad	0.071496345
77	0xbcbe772a	-0.023250181
78	0x3db8bd5f	0.09020495
79	0xbd62c910	-0.05536753
80	0x3d91c100	0.0711689
81	0xbddb2cc3	-0.10701897
82	0x3bd63a74	0.00653773
83	0x3c6e0fa3	0.014530095
84	0xbd08bd1b	-0.03338347
85	0xbd2fe65b	-0.042944293
86	0xbcb1c3ac	-0.021699749
87	0x3d8872b0	0.066625
88	0x3bf73ff3	0.007545465
89	0xbd248567	-0.040166285
90	0x3dc8295a	0.09773512
91	0x3d266310	0.040621817
92	0x3d18a5e5	0.037267584
93	0x3db11dc5	0.08648256
94	0x3dcbbc1d	0.09947989
95	0x3d721048	0.05909756
96	0x3dcbfa32	0.0995983
97	0xbcdbfe0c	-0.026854537
98	0x3dad6fe0	0.08468604
99	0xbd2f093b	-0.042733412
100	0x3da0ebd8	0.078574836
101	0xbd92ba11	-0.071643956
102	0xbd283fb6	-0.041076384
103	0x3d81ae90	0.06332123
104	0xbc8c9fd6	-0.01716606
105	0xbc99a2a8	-0.018754318
106	0xbdc7863e	-0.097424015
107	0x3ba0ee62	0.00491123
108	0x3c8bcd5e	0.0170657
109	0xbd64292f	-0.05570334
110	0xbd2bed73	-0.041974496
111	0xbd811311	-0.06302465
112	0x3ca1f201	0.019768717
113	0xbb57f12e	-0.003295015
114	0x3c8fb35c	0.01754158
115	0xbd875284	-0.066075355
116	0x3b16a4fb	0.002298652
117	0x3bba6fa5	0.0056895786
118	0xbd3da346	-0.046298288
119	0x3cdffbf2	0.027341817
120	0xbd8b9b9f	-0.06816792
121	0x3da86e07	0.08224111
122	0xbd9d65c0	-0.07685423
123	0xbd43378a	-0.047660388
124	0xbc881e18	-0.016615912
125	0xbd41c0c1	-0.047302965
126	0x3b6ce118	0.0036144909
127	0xbd8524df	-0.06501173
128	0xbd1c2e70	-0.038130224
129	0xbd3f59bb	-0.046716433
130	0x3ce599ef	0.028027503
131	0xbd8ff9ac	-0.07030043
132	0x3d5f2792	0.054481097
133	0x3d910d81	0.07082654
134	0xbca5f192	-0.020256791
135	0x3c40076d	0.01172052
136	0x3daf2e0c	0.085537046
137	0xbd65b04e	-0.05607634
138	0x3d149e67	0.036283877
139	0x3db00ecf	0.085965745
140	0xbc853d08	-0.016264454
141	0x3da78186	0.081790015
142	0x3d250be4	0.040294543
143	0x3cd5ccc7	0.026098622
144	0x3d8ebc62	0.06969525
145	0x3d27fbca	0.04101161
146	0x3da69f0c	0.081358045
147	0xbd836f51	-0.06417716
148	0xbb1441e5	-0.0022622284
149	0x3d822c20	0.063560724
150	0x3ce23c97	0.027616782
151	0x3da8bdbb	0.08239313
152	0xbd1c50cf	-0.038163003
153	0x3ccdc042	0.02511609
154	0x3dd8bd2d	0.105829574
155	0xbd500900	-0.050789833
156	0x3d042afb	0.032267552
157	0xbd8c35e1	-0.06846214
158	0xbd05717a	-0.032578923
159	0x3dbaa46b	0.091133915
160	0x3aea9f25	0.0017900212
161	0xbd327268	-0.043566138
162	0x3d70f162	0.05882395
163	0xbdabd075	-0.083893694
164	0xbd9b7a0e	-0.075916395
165	0xbb04cdd8	-0.0020264294
166	0x3d81275c	0.06306335
167	0x3d0bcc5a	0.03413043
168	0xbd682467	-0.05667534
169	0xbcb0a004	-0.021560676
170	0xbd7b43cc	-0.061343953
171	0x3d8a20f6	0.06744568
172	0x3d6dcb5e	0.058055274
173	0x3d61eb92	0.055156298
174	0xbb9bac56	-0.0047507687
175	0x3d52c406	0.051456474
176	0x3d627a59	0.05529246
177	0xbd37bb3c	-0.044856295
178	0x3d905889	0.07048137
179	0xbd6d7c30	-0.057979763
180	0x3c4e9a96	0.012610098
181	0xbd95ee0b	-0.07320794
182	0xbc944be8	-0.018102601
183	0x3d54b3d9	0.05192933
184	0x3cc18fb8	0.0236281
185	0xbdba0d0d	-0.090845205
186	0xbd28d9ee	-0.04122346
187	0x3d3d641c	0.04623805
188	0x3dc0886d	0.09401021
189	0x3bdde66b	0.0067718527
190	0xbd2f877c	-0.042853817
191	0x3de19811	0.110153325
192	0x3d13b977	0.036065545
193	0x3d302154	0.043000534
194	0xbd6a61c2	-0.057222135
195	0x3dc9a905	0.09846691
196	0x3db16bae	0.086631164
197	0x3d70c516	0.058781706
198	0x3dbc5370	0.09195602
199	0x3d80a240	0.06280947
200	0x3db48978	0.088152826
201	0xbda0e2e2	-0.078557745
202	0xbd0735d8	-0.033010334
203	0xbcd6c13f	-0.026215194
204	0x3d87e6d0	0.06635821
205	0xbd44d772	-0.048057027
206	0x3cc19ef1	0.02363536
207	0xbd855ebb	-0.06512209
208	0xbd8f8d30	-0.07009351
209	0x3d4dbdc4	0.050229803
210	0x3d0b6cc5	0.034039278
211	0x3d689f51	0.05679256
212	0x3c44ed8b	0.012019525
213	0x3d3ec60d	0.046575595
214	0x3cef3281	0.029198887
215	0xbdb1ad64	-0.0867565
216	0x3d342fc9	0.043990884
217	0xbd2e3b44	-0.04253699
218	0xbd2d920e	-0.042375617
219	0x3db8d37b	0.09024712
220	0x3c8fbef1	0.017547103
221	0x3d6d684a	0.057960786
222	0x3d89b795	0.067244686
223	0xbc847b51	-0.016172083
224	0xbd0e3c0d	-0.034725238
225	0x3cdb8e0e	0.026801135
226	0x3d54dcae	0.05196827
227	0xbd54cd98	-0.051953882
228	0xb90d4169	-0.00013471175
229	0x3d0761c7	0.033052232
230	0x3d3a93d2	0.04555113
231	0xbda97907	-0.08275037
232	0x3cbfc441	0.02340901
233	0xbd23da56	-0.040003143
234	0x3b741a86	0.0037247255
235	0x3d5bb8a9	0.053642903
236	0xbc3db0c8	-0.0115777925
237	0xbda03f72	-0.07824601
238	0xbdc22ef3	-0.09481611
239	0x3c7c59f7	0.015402309
240	0x3d0148f5	0.031563718
241	0xbd3eb9cf	-0.04656392
242	0x3c660f34	0.014041711
243	0xbd93bbf9	-0.07213587
244	0xbd0c5e00	-0.034269333
245	0x3d99842f	0.07495915
246	0x3dce7d78	0.10082525
247	0x3d03b56a	0.03215543
248	0x3d3d5d2a	0.046231426
249	0x3d85fa9f	0.06541943
250	0x3d7315b7	0.05934688
251	0xbd240cff	-0.040051457
252	0xbb7c17f9	-0.0038466437
253	0xbd07ce21	-0.033155564
254	0xbcc15372	-0.02359936
255	0x3da7bcce	0.081903085

critic.linear1.bias f4 [128]
0	0x3cccd454	0.02500359
1	0x3d651503	0.05592824
2	0xbc57facf	-0.013182356
3	0x3dd75b9e	0.105155215
4	0x3dc8b7f1	0.09800709
5	0xbd6ac43c	-0.05731605
6	0xbd776ed8	-0.060408443
7	0x3d2afb0e	0.04174333
8	0xbc8eb8ad	-0.017422045
9	0x3dc9f489	0.098610945
10	0x3bfe16bc	0.007754175
11	0x3d7e32cc	0.062060162
12	0xbda13f9e	-0.07873462
13	0x3ba256ba	0.0049541863
14	0xbdc7873d	-0.097425915
15	0x3d3f27bd	0.046668757
16	0x3dc41dce	0.09575997
17	0xbd450654	-0.048101738
18	0xbd974d04	-0.073877364
19	0x3b6e22ad	0.0036336586
20	0xbd8abfa1	-0.067748316
21	0xbc9087b3	-0.017642831
22	0x3d23e9ea	0.040018
23	0x3d41cef7	0.047316518
24	0x3dcb18b9	0.09916825
25	0x3db085b7	0.08619254
26	0x3dcd65da	0.10029192
27	0x3d8fbdf2	0.07018651
28	0xbd881797	-0.066451244
29	0x3dccea7d	0.100056626
30	0x3d91b9ed	0.07115541
31	0x3b9e3c82	0.0048289904
32	0x3d88b4ea	0.066751316
33	0x3dbdab93	0.09261241
34	0xbbb2bfa5	-0.0054549747
35	0x3dc893fe	0.09793852
36	0xbd21165a	-0.039327957
37	0x3da049f7	0.07826608
38	0x3db5f92c	0.088854164
39	0xbd346749	-0.044043813
40	0xbd81f211	-0.06344999
41	0xbd459f6c	-0.04824774
42	0x3cdf4fd0	0.027259737
43	0xbd58601e	-0.05282604
44	0xbcdc6546	-0.02690376
45	0x3dae6d33	0.08516922
46	0x3d6a33ac	0.057178184
47	0xbc812415	-0.015764276
48	0xbbfee182	-0.0077783475
49	0xbda2b5ea	-0.079448536
50	0xbd60d5e9	-0.0548915
51	0x3d6faa88	0.05851224
52	0x3d8c7241	0.0685773
53	0x3d0d12fc	0.034441933
54	0xbd91eeeb	-0.07125648
55	0x3d0ae8c0	0.033913374
56	0xbd1d7571	-0.03844208
57	0x3db17691	0.08665193
58	0x3d22b6fd	0.039725292
59	0x3d6de7ea	0.0580825
60	0x3da6ef70	0.08151138
61	0x3caae01d	0.020858819
62	0xbd52d327	-0.0514709
63	0x3d93ae70	0.07211006
64	0x3d59ca47	0.053171422
65	0xbd63e4a5	-0.055637974
66	0xbd1487d8	-0.036262363
67	0x3d050abc	0.03248094
68	0x3dcca6d4	0.099927574
69	0xbdc6ac89	-0.09700877
70	0x3d106576	0.03525301
71	0x3c4da1ef	0.012550815
72	0xbda790b5	-0.081818976
73	0xbc603bf0	-0.013686165
74	0x3ca8b02c	0.020591818
75	0xbccd65e7	-0.025073005
76	0x3c58f974	0.013243068
77	0xbd8e8d63	-0.06960561
78	0x3d11b5a0	0.0355736
79	0x3d11f9fc	0.035638794
80	0xbd3c6f79	-0.046004746
81	0xbd9a5e7e	-0.07537554
82	0x3d859880	0.06523228
83	0xbdb7fe57	-0.08984058
84	0x3d2197a3	0.039451253
85	0x3d9ef6e5	0.07761935
86	0x3b7023df	0.0036642475
87	0xbdc1dd78	-0.0946607
88	0xbd1a35ad	-0.037648845
89	0x3d646450	0.055759728
90	0xbd82bef0	-0.06384075
91	0x3d570c88	0.052502185
92	0xbd6d8674	-0.057989553
93	0xbb2471dd	-0.0025092282
94	0xbd829765	-0.063765325
95	0x3d86e268	0.06586152
96	0x3dcf17e6	0.1011198
97	0xbd3cd54f	-0.046101864
98	0x3c91a35e	0.017778095
99	0x3c94725e	0.01812094
100	0xbdbb1547	-0.09134918
101	0x3d0ff145	0.035142202
102	0xbdd92a3b	-0.10603758
103	0xbd22fba6	-0.039790772
104	0xbd5c3114	-0.053757742
105	0xbd0cde83	-0.03439189
106	0xbcd1cb35	-0.025609592
107	0xbaa2eb5f	-0.0012429765
108	0xbd151968	-0.036401182
109	0xbd8a6072	-0.06756677
110	0x3d8fb256	0.07016437
111	0xbdb372f7	-0.08762162
112	0x3b5364e9	0.0032256192
113	0xbdc30725	-0.09522847
114	0x3dc41297	0.09573858
115	0x3d4eb0ef	0.050461706
116	0xbc993ceb	-0.018705806
117	0x3d92bbd2	0.0716473
118	0xbd35a226	-0.04434409
119	0x3c9e5016	0.019325297
120	0xbb0db104	-0.0021620402
121	0xbd6ad645	-0.05733325
122	0x3dabfcf9	0.0839786
123	0xbd5f067c	-0.054449543
124	0x3d32e945	0.043679494
125	0x3c85bbde	0.016324934
126	0x3cafd0ab	0.021461805
127	0x3cc398cc	0.02387657
